{"modelTopology": {"backend": "tensorflow", "model_config": {"config": {"layers": [{"config": {"dtype": "float32", "name": "input_1", "batch_input_shape": [null, 224, 224, 3], "sparse": false}, "name": "input_1", "inbound_nodes": [], "class_name": "InputLayer"}, {"config": {"use_bias": true, "kernel_size": [3, 3], "name": "conv2d_1", "activation": "linear", "data_format": "channels_last", "kernel_constraint": null, "padding": "same", "kernel_regularizer": null, "activity_regularizer": null, "dilation_rate": [1, 1], "trainable": true, "bias_regularizer": null, "kernel_initializer": {"config": {"distribution": "uniform", "scale": 1.0, "seed": null, "mode": "fan_avg"}, "class_name": "VarianceScaling"}, "strides": [2, 2], "bias_constraint": null, "filters": 32, "bias_initializer": {"config": {}, "class_name": "Zeros"}}, "name": "conv2d_1", "inbound_nodes": [[["input_1", 0, 0, {}]]], "class_name": "Conv2D"}, {"config": {"name": "batch_normalization_1", "beta_initializer": {"config": {}, "class_name": "Zeros"}, "moving_variance_initializer": {"config": {}, "class_name": "Ones"}, "epsilon": 0.001, "center": true, "axis": -1, "trainable": true, "beta_constraint": null, "moving_mean_initializer": {"config": {}, "class_name": "Zeros"}, "gamma_constraint": null, "scale": true, "gamma_initializer": {"config": {}, "class_name": "Ones"}, "beta_regularizer": null, "momentum": 0.99, "gamma_regularizer": null}, "name": "batch_normalization_1", "inbound_nodes": [[["conv2d_1", 0, 0, {}]]], "class_name": "BatchNormalization"}, {"config": {"trainable": true, "name": "activation_1", "activation": "relu6"}, "name": "activation_1", "inbound_nodes": [[["batch_normalization_1", 0, 0, {}]]], "class_name": "Activation"}, {"config": {"use_bias": true, "kernel_size": [1, 1], "name": "conv2d_2", "activation": "linear", "data_format": "channels_last", "kernel_constraint": null, "padding": "same", "kernel_regularizer": null, "activity_regularizer": null, "dilation_rate": [1, 1], "trainable": true, "bias_regularizer": null, "kernel_initializer": {"config": {"distribution": "uniform", "scale": 1.0, "seed": null, "mode": "fan_avg"}, "class_name": "VarianceScaling"}, "strides": [1, 1], "bias_constraint": null, "filters": 32, "bias_initializer": {"config": {}, "class_name": "Zeros"}}, "name": "conv2d_2", "inbound_nodes": [[["activation_1", 0, 0, {}]]], "class_name": "Conv2D"}, {"config": {"name": "batch_normalization_2", "beta_initializer": {"config": {}, "class_name": "Zeros"}, "moving_variance_initializer": {"config": {}, "class_name": "Ones"}, "epsilon": 0.001, "center": true, "axis": -1, "trainable": true, "beta_constraint": null, "moving_mean_initializer": {"config": {}, "class_name": "Zeros"}, "gamma_constraint": null, "scale": true, "gamma_initializer": {"config": {}, "class_name": "Ones"}, "beta_regularizer": null, "momentum": 0.99, "gamma_regularizer": null}, "name": "batch_normalization_2", "inbound_nodes": [[["conv2d_2", 0, 0, {}]]], "class_name": "BatchNormalization"}, {"config": {"trainable": true, "name": "activation_2", "activation": "relu6"}, "name": "activation_2", "inbound_nodes": [[["batch_normalization_2", 0, 0, {}]]], "class_name": "Activation"}, {"config": {"use_bias": true, "kernel_size": [3, 3], "name": "depthwise_conv2d_1", "depth_multiplier": 1, "activation": "linear", "data_format": "channels_last", "depthwise_regularizer": null, "depthwise_constraint": null, "padding": "same", "activity_regularizer": null, "dilation_rate": [1, 1], "trainable": true, "depthwise_initializer": {"config": {"distribution": "uniform", "scale": 1.0, "seed": null, "mode": "fan_avg"}, "class_name": "VarianceScaling"}, "strides": [1, 1], "bias_constraint": null, "bias_initializer": {"config": {}, "class_name": "Zeros"}, "bias_regularizer": null}, "name": "depthwise_conv2d_1", "inbound_nodes": [[["activation_2", 0, 0, {}]]], "class_name": "DepthwiseConv2D"}, {"config": {"name": "batch_normalization_3", "beta_initializer": {"config": {}, "class_name": "Zeros"}, "moving_variance_initializer": {"config": {}, "class_name": "Ones"}, "epsilon": 0.001, "center": true, "axis": -1, "trainable": true, "beta_constraint": null, "moving_mean_initializer": {"config": {}, "class_name": "Zeros"}, "gamma_constraint": null, "scale": true, "gamma_initializer": {"config": {}, "class_name": "Ones"}, "beta_regularizer": null, "momentum": 0.99, "gamma_regularizer": null}, "name": "batch_normalization_3", "inbound_nodes": [[["depthwise_conv2d_1", 0, 0, {}]]], "class_name": "BatchNormalization"}, {"config": {"trainable": true, "name": "activation_3", "activation": "relu6"}, "name": "activation_3", "inbound_nodes": [[["batch_normalization_3", 0, 0, {}]]], "class_name": "Activation"}, {"config": {"use_bias": true, "kernel_size": [1, 1], "name": "conv2d_3", "activation": "linear", "data_format": "channels_last", "kernel_constraint": null, "padding": "same", "kernel_regularizer": null, "activity_regularizer": null, "dilation_rate": [1, 1], "trainable": true, "bias_regularizer": null, "kernel_initializer": {"config": {"distribution": "uniform", "scale": 1.0, "seed": null, "mode": "fan_avg"}, "class_name": "VarianceScaling"}, "strides": [1, 1], "bias_constraint": null, "filters": 16, "bias_initializer": {"config": {}, "class_name": "Zeros"}}, "name": "conv2d_3", "inbound_nodes": [[["activation_3", 0, 0, {}]]], "class_name": "Conv2D"}, {"config": {"name": "batch_normalization_4", "beta_initializer": {"config": {}, "class_name": "Zeros"}, "moving_variance_initializer": {"config": {}, "class_name": "Ones"}, "epsilon": 0.001, "center": true, "axis": -1, "trainable": true, "beta_constraint": null, "moving_mean_initializer": {"config": {}, "class_name": "Zeros"}, "gamma_constraint": null, "scale": true, "gamma_initializer": {"config": {}, "class_name": "Ones"}, "beta_regularizer": null, "momentum": 0.99, "gamma_regularizer": null}, "name": "batch_normalization_4", "inbound_nodes": [[["conv2d_3", 0, 0, {}]]], "class_name": "BatchNormalization"}, {"config": {"use_bias": true, "kernel_size": [1, 1], "name": "conv2d_4", "activation": "linear", "data_format": "channels_last", "kernel_constraint": null, "padding": "same", "kernel_regularizer": null, "activity_regularizer": null, "dilation_rate": [1, 1], "trainable": true, "bias_regularizer": null, "kernel_initializer": {"config": {"distribution": "uniform", "scale": 1.0, "seed": null, "mode": "fan_avg"}, "class_name": "VarianceScaling"}, "strides": [1, 1], "bias_constraint": null, "filters": 96, "bias_initializer": {"config": {}, "class_name": "Zeros"}}, "name": "conv2d_4", "inbound_nodes": [[["batch_normalization_4", 0, 0, {}]]], "class_name": "Conv2D"}, {"config": {"name": "batch_normalization_5", "beta_initializer": {"config": {}, "class_name": "Zeros"}, "moving_variance_initializer": {"config": {}, "class_name": "Ones"}, "epsilon": 0.001, "center": true, "axis": -1, "trainable": true, "beta_constraint": null, "moving_mean_initializer": {"config": {}, "class_name": "Zeros"}, "gamma_constraint": null, "scale": true, "gamma_initializer": {"config": {}, "class_name": "Ones"}, "beta_regularizer": null, "momentum": 0.99, "gamma_regularizer": null}, "name": "batch_normalization_5", "inbound_nodes": [[["conv2d_4", 0, 0, {}]]], "class_name": "BatchNormalization"}, {"config": {"trainable": true, "name": "activation_4", "activation": "relu6"}, "name": "activation_4", "inbound_nodes": [[["batch_normalization_5", 0, 0, {}]]], "class_name": "Activation"}, {"config": {"use_bias": true, "kernel_size": [3, 3], "name": "depthwise_conv2d_2", "depth_multiplier": 1, "activation": "linear", "data_format": "channels_last", "depthwise_regularizer": null, "depthwise_constraint": null, "padding": "same", "activity_regularizer": null, "dilation_rate": [1, 1], "trainable": true, "depthwise_initializer": {"config": {"distribution": "uniform", "scale": 1.0, "seed": null, "mode": "fan_avg"}, "class_name": "VarianceScaling"}, "strides": [2, 2], "bias_constraint": null, "bias_initializer": {"config": {}, "class_name": "Zeros"}, "bias_regularizer": null}, "name": "depthwise_conv2d_2", "inbound_nodes": [[["activation_4", 0, 0, {}]]], "class_name": "DepthwiseConv2D"}, {"config": {"name": "batch_normalization_6", "beta_initializer": {"config": {}, "class_name": "Zeros"}, "moving_variance_initializer": {"config": {}, "class_name": "Ones"}, "epsilon": 0.001, "center": true, "axis": -1, "trainable": true, "beta_constraint": null, "moving_mean_initializer": {"config": {}, "class_name": "Zeros"}, "gamma_constraint": null, "scale": true, "gamma_initializer": {"config": {}, "class_name": "Ones"}, "beta_regularizer": null, "momentum": 0.99, "gamma_regularizer": null}, "name": "batch_normalization_6", "inbound_nodes": [[["depthwise_conv2d_2", 0, 0, {}]]], "class_name": "BatchNormalization"}, {"config": {"trainable": true, "name": "activation_5", "activation": "relu6"}, "name": "activation_5", "inbound_nodes": [[["batch_normalization_6", 0, 0, {}]]], "class_name": "Activation"}, {"config": {"use_bias": true, "kernel_size": [1, 1], "name": "conv2d_5", "activation": "linear", "data_format": "channels_last", "kernel_constraint": null, "padding": "same", "kernel_regularizer": null, "activity_regularizer": null, "dilation_rate": [1, 1], "trainable": true, "bias_regularizer": null, "kernel_initializer": {"config": {"distribution": "uniform", "scale": 1.0, "seed": null, "mode": "fan_avg"}, "class_name": "VarianceScaling"}, "strides": [1, 1], "bias_constraint": null, "filters": 24, "bias_initializer": {"config": {}, "class_name": "Zeros"}}, "name": "conv2d_5", "inbound_nodes": [[["activation_5", 0, 0, {}]]], "class_name": "Conv2D"}, {"config": {"name": "batch_normalization_7", "beta_initializer": {"config": {}, "class_name": "Zeros"}, "moving_variance_initializer": {"config": {}, "class_name": "Ones"}, "epsilon": 0.001, "center": true, "axis": -1, "trainable": true, "beta_constraint": null, "moving_mean_initializer": {"config": {}, "class_name": "Zeros"}, "gamma_constraint": null, "scale": true, "gamma_initializer": {"config": {}, "class_name": "Ones"}, "beta_regularizer": null, "momentum": 0.99, "gamma_regularizer": null}, "name": "batch_normalization_7", "inbound_nodes": [[["conv2d_5", 0, 0, {}]]], "class_name": "BatchNormalization"}, {"config": {"use_bias": true, "kernel_size": [1, 1], "name": "conv2d_6", "activation": "linear", "data_format": "channels_last", "kernel_constraint": null, "padding": "same", "kernel_regularizer": null, "activity_regularizer": null, "dilation_rate": [1, 1], "trainable": true, "bias_regularizer": null, "kernel_initializer": {"config": {"distribution": "uniform", "scale": 1.0, "seed": null, "mode": "fan_avg"}, "class_name": "VarianceScaling"}, "strides": [1, 1], "bias_constraint": null, "filters": 144, "bias_initializer": {"config": {}, "class_name": "Zeros"}}, "name": "conv2d_6", "inbound_nodes": [[["batch_normalization_7", 0, 0, {}]]], "class_name": "Conv2D"}, {"config": {"name": "batch_normalization_8", "beta_initializer": {"config": {}, "class_name": "Zeros"}, "moving_variance_initializer": {"config": {}, "class_name": "Ones"}, "epsilon": 0.001, "center": true, "axis": -1, "trainable": true, "beta_constraint": null, "moving_mean_initializer": {"config": {}, "class_name": "Zeros"}, "gamma_constraint": null, "scale": true, "gamma_initializer": {"config": {}, "class_name": "Ones"}, "beta_regularizer": null, "momentum": 0.99, "gamma_regularizer": null}, "name": "batch_normalization_8", "inbound_nodes": [[["conv2d_6", 0, 0, {}]]], "class_name": "BatchNormalization"}, {"config": {"trainable": true, "name": "activation_6", "activation": "relu6"}, "name": "activation_6", "inbound_nodes": [[["batch_normalization_8", 0, 0, {}]]], "class_name": "Activation"}, {"config": {"use_bias": true, "kernel_size": [3, 3], "name": "depthwise_conv2d_3", "depth_multiplier": 1, "activation": "linear", "data_format": "channels_last", "depthwise_regularizer": null, "depthwise_constraint": null, "padding": "same", "activity_regularizer": null, "dilation_rate": [1, 1], "trainable": true, "depthwise_initializer": {"config": {"distribution": "uniform", "scale": 1.0, "seed": null, "mode": "fan_avg"}, "class_name": "VarianceScaling"}, "strides": [1, 1], "bias_constraint": null, "bias_initializer": {"config": {}, "class_name": "Zeros"}, "bias_regularizer": null}, "name": "depthwise_conv2d_3", "inbound_nodes": [[["activation_6", 0, 0, {}]]], "class_name": "DepthwiseConv2D"}, {"config": {"name": "batch_normalization_9", "beta_initializer": {"config": {}, "class_name": "Zeros"}, "moving_variance_initializer": {"config": {}, "class_name": "Ones"}, "epsilon": 0.001, "center": true, "axis": -1, "trainable": true, "beta_constraint": null, "moving_mean_initializer": {"config": {}, "class_name": "Zeros"}, "gamma_constraint": null, "scale": true, "gamma_initializer": {"config": {}, "class_name": "Ones"}, "beta_regularizer": null, "momentum": 0.99, "gamma_regularizer": null}, "name": "batch_normalization_9", "inbound_nodes": [[["depthwise_conv2d_3", 0, 0, {}]]], "class_name": "BatchNormalization"}, {"config": {"trainable": true, "name": "activation_7", "activation": "relu6"}, "name": "activation_7", "inbound_nodes": [[["batch_normalization_9", 0, 0, {}]]], "class_name": "Activation"}, {"config": {"use_bias": true, "kernel_size": [1, 1], "name": "conv2d_7", "activation": "linear", "data_format": "channels_last", "kernel_constraint": null, "padding": "same", "kernel_regularizer": null, "activity_regularizer": null, "dilation_rate": [1, 1], "trainable": true, "bias_regularizer": null, "kernel_initializer": {"config": {"distribution": "uniform", "scale": 1.0, "seed": null, "mode": "fan_avg"}, "class_name": "VarianceScaling"}, "strides": [1, 1], "bias_constraint": null, "filters": 24, "bias_initializer": {"config": {}, "class_name": "Zeros"}}, "name": "conv2d_7", "inbound_nodes": [[["activation_7", 0, 0, {}]]], "class_name": "Conv2D"}, {"config": {"name": "batch_normalization_10", "beta_initializer": {"config": {}, "class_name": "Zeros"}, "moving_variance_initializer": {"config": {}, "class_name": "Ones"}, "epsilon": 0.001, "center": true, "axis": -1, "trainable": true, "beta_constraint": null, "moving_mean_initializer": {"config": {}, "class_name": "Zeros"}, "gamma_constraint": null, "scale": true, "gamma_initializer": {"config": {}, "class_name": "Ones"}, "beta_regularizer": null, "momentum": 0.99, "gamma_regularizer": null}, "name": "batch_normalization_10", "inbound_nodes": [[["conv2d_7", 0, 0, {}]]], "class_name": "BatchNormalization"}, {"config": {"trainable": true, "name": "add_1"}, "name": "add_1", "inbound_nodes": [[["batch_normalization_10", 0, 0, {}], ["batch_normalization_7", 0, 0, {}]]], "class_name": "Add"}, {"config": {"use_bias": true, "kernel_size": [1, 1], "name": "conv2d_8", "activation": "linear", "data_format": "channels_last", "kernel_constraint": null, "padding": "same", "kernel_regularizer": null, "activity_regularizer": null, "dilation_rate": [1, 1], "trainable": true, "bias_regularizer": null, "kernel_initializer": {"config": {"distribution": "uniform", "scale": 1.0, "seed": null, "mode": "fan_avg"}, "class_name": "VarianceScaling"}, "strides": [1, 1], "bias_constraint": null, "filters": 144, "bias_initializer": {"config": {}, "class_name": "Zeros"}}, "name": "conv2d_8", "inbound_nodes": [[["add_1", 0, 0, {}]]], "class_name": "Conv2D"}, {"config": {"name": "batch_normalization_11", "beta_initializer": {"config": {}, "class_name": "Zeros"}, "moving_variance_initializer": {"config": {}, "class_name": "Ones"}, "epsilon": 0.001, "center": true, "axis": -1, "trainable": true, "beta_constraint": null, "moving_mean_initializer": {"config": {}, "class_name": "Zeros"}, "gamma_constraint": null, "scale": true, "gamma_initializer": {"config": {}, "class_name": "Ones"}, "beta_regularizer": null, "momentum": 0.99, "gamma_regularizer": null}, "name": "batch_normalization_11", "inbound_nodes": [[["conv2d_8", 0, 0, {}]]], "class_name": "BatchNormalization"}, {"config": {"trainable": true, "name": "activation_8", "activation": "relu6"}, "name": "activation_8", "inbound_nodes": [[["batch_normalization_11", 0, 0, {}]]], "class_name": "Activation"}, {"config": {"use_bias": true, "kernel_size": [3, 3], "name": "depthwise_conv2d_4", "depth_multiplier": 1, "activation": "linear", "data_format": "channels_last", "depthwise_regularizer": null, "depthwise_constraint": null, "padding": "same", "activity_regularizer": null, "dilation_rate": [1, 1], "trainable": true, "depthwise_initializer": {"config": {"distribution": "uniform", "scale": 1.0, "seed": null, "mode": "fan_avg"}, "class_name": "VarianceScaling"}, "strides": [2, 2], "bias_constraint": null, "bias_initializer": {"config": {}, "class_name": "Zeros"}, "bias_regularizer": null}, "name": "depthwise_conv2d_4", "inbound_nodes": [[["activation_8", 0, 0, {}]]], "class_name": "DepthwiseConv2D"}, {"config": {"name": "batch_normalization_12", "beta_initializer": {"config": {}, "class_name": "Zeros"}, "moving_variance_initializer": {"config": {}, "class_name": "Ones"}, "epsilon": 0.001, "center": true, "axis": -1, "trainable": true, "beta_constraint": null, "moving_mean_initializer": {"config": {}, "class_name": "Zeros"}, "gamma_constraint": null, "scale": true, "gamma_initializer": {"config": {}, "class_name": "Ones"}, "beta_regularizer": null, "momentum": 0.99, "gamma_regularizer": null}, "name": "batch_normalization_12", "inbound_nodes": [[["depthwise_conv2d_4", 0, 0, {}]]], "class_name": "BatchNormalization"}, {"config": {"trainable": true, "name": "activation_9", "activation": "relu6"}, "name": "activation_9", "inbound_nodes": [[["batch_normalization_12", 0, 0, {}]]], "class_name": "Activation"}, {"config": {"use_bias": true, "kernel_size": [1, 1], "name": "conv2d_9", "activation": "linear", "data_format": "channels_last", "kernel_constraint": null, "padding": "same", "kernel_regularizer": null, "activity_regularizer": null, "dilation_rate": [1, 1], "trainable": true, "bias_regularizer": null, "kernel_initializer": {"config": {"distribution": "uniform", "scale": 1.0, "seed": null, "mode": "fan_avg"}, "class_name": "VarianceScaling"}, "strides": [1, 1], "bias_constraint": null, "filters": 32, "bias_initializer": {"config": {}, "class_name": "Zeros"}}, "name": "conv2d_9", "inbound_nodes": [[["activation_9", 0, 0, {}]]], "class_name": "Conv2D"}, {"config": {"name": "batch_normalization_13", "beta_initializer": {"config": {}, "class_name": "Zeros"}, "moving_variance_initializer": {"config": {}, "class_name": "Ones"}, "epsilon": 0.001, "center": true, "axis": -1, "trainable": true, "beta_constraint": null, "moving_mean_initializer": {"config": {}, "class_name": "Zeros"}, "gamma_constraint": null, "scale": true, "gamma_initializer": {"config": {}, "class_name": "Ones"}, "beta_regularizer": null, "momentum": 0.99, "gamma_regularizer": null}, "name": "batch_normalization_13", "inbound_nodes": [[["conv2d_9", 0, 0, {}]]], "class_name": "BatchNormalization"}, {"config": {"use_bias": true, "kernel_size": [1, 1], "name": "conv2d_10", "activation": "linear", "data_format": "channels_last", "kernel_constraint": null, "padding": "same", "kernel_regularizer": null, "activity_regularizer": null, "dilation_rate": [1, 1], "trainable": true, "bias_regularizer": null, "kernel_initializer": {"config": {"distribution": "uniform", "scale": 1.0, "seed": null, "mode": "fan_avg"}, "class_name": "VarianceScaling"}, "strides": [1, 1], "bias_constraint": null, "filters": 192, "bias_initializer": {"config": {}, "class_name": "Zeros"}}, "name": "conv2d_10", "inbound_nodes": [[["batch_normalization_13", 0, 0, {}]]], "class_name": "Conv2D"}, {"config": {"name": "batch_normalization_14", "beta_initializer": {"config": {}, "class_name": "Zeros"}, "moving_variance_initializer": {"config": {}, "class_name": "Ones"}, "epsilon": 0.001, "center": true, "axis": -1, "trainable": true, "beta_constraint": null, "moving_mean_initializer": {"config": {}, "class_name": "Zeros"}, "gamma_constraint": null, "scale": true, "gamma_initializer": {"config": {}, "class_name": "Ones"}, "beta_regularizer": null, "momentum": 0.99, "gamma_regularizer": null}, "name": "batch_normalization_14", "inbound_nodes": [[["conv2d_10", 0, 0, {}]]], "class_name": "BatchNormalization"}, {"config": {"trainable": true, "name": "activation_10", "activation": "relu6"}, "name": "activation_10", "inbound_nodes": [[["batch_normalization_14", 0, 0, {}]]], "class_name": "Activation"}, {"config": {"use_bias": true, "kernel_size": [3, 3], "name": "depthwise_conv2d_5", "depth_multiplier": 1, "activation": "linear", "data_format": "channels_last", "depthwise_regularizer": null, "depthwise_constraint": null, "padding": "same", "activity_regularizer": null, "dilation_rate": [1, 1], "trainable": true, "depthwise_initializer": {"config": {"distribution": "uniform", "scale": 1.0, "seed": null, "mode": "fan_avg"}, "class_name": "VarianceScaling"}, "strides": [1, 1], "bias_constraint": null, "bias_initializer": {"config": {}, "class_name": "Zeros"}, "bias_regularizer": null}, "name": "depthwise_conv2d_5", "inbound_nodes": [[["activation_10", 0, 0, {}]]], "class_name": "DepthwiseConv2D"}, {"config": {"name": "batch_normalization_15", "beta_initializer": {"config": {}, "class_name": "Zeros"}, "moving_variance_initializer": {"config": {}, "class_name": "Ones"}, "epsilon": 0.001, "center": true, "axis": -1, "trainable": true, "beta_constraint": null, "moving_mean_initializer": {"config": {}, "class_name": "Zeros"}, "gamma_constraint": null, "scale": true, "gamma_initializer": {"config": {}, "class_name": "Ones"}, "beta_regularizer": null, "momentum": 0.99, "gamma_regularizer": null}, "name": "batch_normalization_15", "inbound_nodes": [[["depthwise_conv2d_5", 0, 0, {}]]], "class_name": "BatchNormalization"}, {"config": {"trainable": true, "name": "activation_11", "activation": "relu6"}, "name": "activation_11", "inbound_nodes": [[["batch_normalization_15", 0, 0, {}]]], "class_name": "Activation"}, {"config": {"use_bias": true, "kernel_size": [1, 1], "name": "conv2d_11", "activation": "linear", "data_format": "channels_last", "kernel_constraint": null, "padding": "same", "kernel_regularizer": null, "activity_regularizer": null, "dilation_rate": [1, 1], "trainable": true, "bias_regularizer": null, "kernel_initializer": {"config": {"distribution": "uniform", "scale": 1.0, "seed": null, "mode": "fan_avg"}, "class_name": "VarianceScaling"}, "strides": [1, 1], "bias_constraint": null, "filters": 32, "bias_initializer": {"config": {}, "class_name": "Zeros"}}, "name": "conv2d_11", "inbound_nodes": [[["activation_11", 0, 0, {}]]], "class_name": "Conv2D"}, {"config": {"name": "batch_normalization_16", "beta_initializer": {"config": {}, "class_name": "Zeros"}, "moving_variance_initializer": {"config": {}, "class_name": "Ones"}, "epsilon": 0.001, "center": true, "axis": -1, "trainable": true, "beta_constraint": null, "moving_mean_initializer": {"config": {}, "class_name": "Zeros"}, "gamma_constraint": null, "scale": true, "gamma_initializer": {"config": {}, "class_name": "Ones"}, "beta_regularizer": null, "momentum": 0.99, "gamma_regularizer": null}, "name": "batch_normalization_16", "inbound_nodes": [[["conv2d_11", 0, 0, {}]]], "class_name": "BatchNormalization"}, {"config": {"trainable": true, "name": "add_2"}, "name": "add_2", "inbound_nodes": [[["batch_normalization_16", 0, 0, {}], ["batch_normalization_13", 0, 0, {}]]], "class_name": "Add"}, {"config": {"use_bias": true, "kernel_size": [1, 1], "name": "conv2d_12", "activation": "linear", "data_format": "channels_last", "kernel_constraint": null, "padding": "same", "kernel_regularizer": null, "activity_regularizer": null, "dilation_rate": [1, 1], "trainable": true, "bias_regularizer": null, "kernel_initializer": {"config": {"distribution": "uniform", "scale": 1.0, "seed": null, "mode": "fan_avg"}, "class_name": "VarianceScaling"}, "strides": [1, 1], "bias_constraint": null, "filters": 192, "bias_initializer": {"config": {}, "class_name": "Zeros"}}, "name": "conv2d_12", "inbound_nodes": [[["add_2", 0, 0, {}]]], "class_name": "Conv2D"}, {"config": {"name": "batch_normalization_17", "beta_initializer": {"config": {}, "class_name": "Zeros"}, "moving_variance_initializer": {"config": {}, "class_name": "Ones"}, "epsilon": 0.001, "center": true, "axis": -1, "trainable": true, "beta_constraint": null, "moving_mean_initializer": {"config": {}, "class_name": "Zeros"}, "gamma_constraint": null, "scale": true, "gamma_initializer": {"config": {}, "class_name": "Ones"}, "beta_regularizer": null, "momentum": 0.99, "gamma_regularizer": null}, "name": "batch_normalization_17", "inbound_nodes": [[["conv2d_12", 0, 0, {}]]], "class_name": "BatchNormalization"}, {"config": {"trainable": true, "name": "activation_12", "activation": "relu6"}, "name": "activation_12", "inbound_nodes": [[["batch_normalization_17", 0, 0, {}]]], "class_name": "Activation"}, {"config": {"use_bias": true, "kernel_size": [3, 3], "name": "depthwise_conv2d_6", "depth_multiplier": 1, "activation": "linear", "data_format": "channels_last", "depthwise_regularizer": null, "depthwise_constraint": null, "padding": "same", "activity_regularizer": null, "dilation_rate": [1, 1], "trainable": true, "depthwise_initializer": {"config": {"distribution": "uniform", "scale": 1.0, "seed": null, "mode": "fan_avg"}, "class_name": "VarianceScaling"}, "strides": [1, 1], "bias_constraint": null, "bias_initializer": {"config": {}, "class_name": "Zeros"}, "bias_regularizer": null}, "name": "depthwise_conv2d_6", "inbound_nodes": [[["activation_12", 0, 0, {}]]], "class_name": "DepthwiseConv2D"}, {"config": {"name": "batch_normalization_18", "beta_initializer": {"config": {}, "class_name": "Zeros"}, "moving_variance_initializer": {"config": {}, "class_name": "Ones"}, "epsilon": 0.001, "center": true, "axis": -1, "trainable": true, "beta_constraint": null, "moving_mean_initializer": {"config": {}, "class_name": "Zeros"}, "gamma_constraint": null, "scale": true, "gamma_initializer": {"config": {}, "class_name": "Ones"}, "beta_regularizer": null, "momentum": 0.99, "gamma_regularizer": null}, "name": "batch_normalization_18", "inbound_nodes": [[["depthwise_conv2d_6", 0, 0, {}]]], "class_name": "BatchNormalization"}, {"config": {"trainable": true, "name": "activation_13", "activation": "relu6"}, "name": "activation_13", "inbound_nodes": [[["batch_normalization_18", 0, 0, {}]]], "class_name": "Activation"}, {"config": {"use_bias": true, "kernel_size": [1, 1], "name": "conv2d_13", "activation": "linear", "data_format": "channels_last", "kernel_constraint": null, "padding": "same", "kernel_regularizer": null, "activity_regularizer": null, "dilation_rate": [1, 1], "trainable": true, "bias_regularizer": null, "kernel_initializer": {"config": {"distribution": "uniform", "scale": 1.0, "seed": null, "mode": "fan_avg"}, "class_name": "VarianceScaling"}, "strides": [1, 1], "bias_constraint": null, "filters": 32, "bias_initializer": {"config": {}, "class_name": "Zeros"}}, "name": "conv2d_13", "inbound_nodes": [[["activation_13", 0, 0, {}]]], "class_name": "Conv2D"}, {"config": {"name": "batch_normalization_19", "beta_initializer": {"config": {}, "class_name": "Zeros"}, "moving_variance_initializer": {"config": {}, "class_name": "Ones"}, "epsilon": 0.001, "center": true, "axis": -1, "trainable": true, "beta_constraint": null, "moving_mean_initializer": {"config": {}, "class_name": "Zeros"}, "gamma_constraint": null, "scale": true, "gamma_initializer": {"config": {}, "class_name": "Ones"}, "beta_regularizer": null, "momentum": 0.99, "gamma_regularizer": null}, "name": "batch_normalization_19", "inbound_nodes": [[["conv2d_13", 0, 0, {}]]], "class_name": "BatchNormalization"}, {"config": {"trainable": true, "name": "add_3"}, "name": "add_3", "inbound_nodes": [[["batch_normalization_19", 0, 0, {}], ["add_2", 0, 0, {}]]], "class_name": "Add"}, {"config": {"use_bias": true, "kernel_size": [1, 1], "name": "conv2d_14", "activation": "linear", "data_format": "channels_last", "kernel_constraint": null, "padding": "same", "kernel_regularizer": null, "activity_regularizer": null, "dilation_rate": [1, 1], "trainable": true, "bias_regularizer": null, "kernel_initializer": {"config": {"distribution": "uniform", "scale": 1.0, "seed": null, "mode": "fan_avg"}, "class_name": "VarianceScaling"}, "strides": [1, 1], "bias_constraint": null, "filters": 192, "bias_initializer": {"config": {}, "class_name": "Zeros"}}, "name": "conv2d_14", "inbound_nodes": [[["add_3", 0, 0, {}]]], "class_name": "Conv2D"}, {"config": {"name": "batch_normalization_20", "beta_initializer": {"config": {}, "class_name": "Zeros"}, "moving_variance_initializer": {"config": {}, "class_name": "Ones"}, "epsilon": 0.001, "center": true, "axis": -1, "trainable": true, "beta_constraint": null, "moving_mean_initializer": {"config": {}, "class_name": "Zeros"}, "gamma_constraint": null, "scale": true, "gamma_initializer": {"config": {}, "class_name": "Ones"}, "beta_regularizer": null, "momentum": 0.99, "gamma_regularizer": null}, "name": "batch_normalization_20", "inbound_nodes": [[["conv2d_14", 0, 0, {}]]], "class_name": "BatchNormalization"}, {"config": {"trainable": true, "name": "activation_14", "activation": "relu6"}, "name": "activation_14", "inbound_nodes": [[["batch_normalization_20", 0, 0, {}]]], "class_name": "Activation"}, {"config": {"use_bias": true, "kernel_size": [3, 3], "name": "depthwise_conv2d_7", "depth_multiplier": 1, "activation": "linear", "data_format": "channels_last", "depthwise_regularizer": null, "depthwise_constraint": null, "padding": "same", "activity_regularizer": null, "dilation_rate": [1, 1], "trainable": true, "depthwise_initializer": {"config": {"distribution": "uniform", "scale": 1.0, "seed": null, "mode": "fan_avg"}, "class_name": "VarianceScaling"}, "strides": [2, 2], "bias_constraint": null, "bias_initializer": {"config": {}, "class_name": "Zeros"}, "bias_regularizer": null}, "name": "depthwise_conv2d_7", "inbound_nodes": [[["activation_14", 0, 0, {}]]], "class_name": "DepthwiseConv2D"}, {"config": {"name": "batch_normalization_21", "beta_initializer": {"config": {}, "class_name": "Zeros"}, "moving_variance_initializer": {"config": {}, "class_name": "Ones"}, "epsilon": 0.001, "center": true, "axis": -1, "trainable": true, "beta_constraint": null, "moving_mean_initializer": {"config": {}, "class_name": "Zeros"}, "gamma_constraint": null, "scale": true, "gamma_initializer": {"config": {}, "class_name": "Ones"}, "beta_regularizer": null, "momentum": 0.99, "gamma_regularizer": null}, "name": "batch_normalization_21", "inbound_nodes": [[["depthwise_conv2d_7", 0, 0, {}]]], "class_name": "BatchNormalization"}, {"config": {"trainable": true, "name": "activation_15", "activation": "relu6"}, "name": "activation_15", "inbound_nodes": [[["batch_normalization_21", 0, 0, {}]]], "class_name": "Activation"}, {"config": {"use_bias": true, "kernel_size": [1, 1], "name": "conv2d_15", "activation": "linear", "data_format": "channels_last", "kernel_constraint": null, "padding": "same", "kernel_regularizer": null, "activity_regularizer": null, "dilation_rate": [1, 1], "trainable": true, "bias_regularizer": null, "kernel_initializer": {"config": {"distribution": "uniform", "scale": 1.0, "seed": null, "mode": "fan_avg"}, "class_name": "VarianceScaling"}, "strides": [1, 1], "bias_constraint": null, "filters": 64, "bias_initializer": {"config": {}, "class_name": "Zeros"}}, "name": "conv2d_15", "inbound_nodes": [[["activation_15", 0, 0, {}]]], "class_name": "Conv2D"}, {"config": {"name": "batch_normalization_22", "beta_initializer": {"config": {}, "class_name": "Zeros"}, "moving_variance_initializer": {"config": {}, "class_name": "Ones"}, "epsilon": 0.001, "center": true, "axis": -1, "trainable": true, "beta_constraint": null, "moving_mean_initializer": {"config": {}, "class_name": "Zeros"}, "gamma_constraint": null, "scale": true, "gamma_initializer": {"config": {}, "class_name": "Ones"}, "beta_regularizer": null, "momentum": 0.99, "gamma_regularizer": null}, "name": "batch_normalization_22", "inbound_nodes": [[["conv2d_15", 0, 0, {}]]], "class_name": "BatchNormalization"}, {"config": {"use_bias": true, "kernel_size": [1, 1], "name": "conv2d_16", "activation": "linear", "data_format": "channels_last", "kernel_constraint": null, "padding": "same", "kernel_regularizer": null, "activity_regularizer": null, "dilation_rate": [1, 1], "trainable": true, "bias_regularizer": null, "kernel_initializer": {"config": {"distribution": "uniform", "scale": 1.0, "seed": null, "mode": "fan_avg"}, "class_name": "VarianceScaling"}, "strides": [1, 1], "bias_constraint": null, "filters": 384, "bias_initializer": {"config": {}, "class_name": "Zeros"}}, "name": "conv2d_16", "inbound_nodes": [[["batch_normalization_22", 0, 0, {}]]], "class_name": "Conv2D"}, {"config": {"name": "batch_normalization_23", "beta_initializer": {"config": {}, "class_name": "Zeros"}, "moving_variance_initializer": {"config": {}, "class_name": "Ones"}, "epsilon": 0.001, "center": true, "axis": -1, "trainable": true, "beta_constraint": null, "moving_mean_initializer": {"config": {}, "class_name": "Zeros"}, "gamma_constraint": null, "scale": true, "gamma_initializer": {"config": {}, "class_name": "Ones"}, "beta_regularizer": null, "momentum": 0.99, "gamma_regularizer": null}, "name": "batch_normalization_23", "inbound_nodes": [[["conv2d_16", 0, 0, {}]]], "class_name": "BatchNormalization"}, {"config": {"trainable": true, "name": "activation_16", "activation": "relu6"}, "name": "activation_16", "inbound_nodes": [[["batch_normalization_23", 0, 0, {}]]], "class_name": "Activation"}, {"config": {"use_bias": true, "kernel_size": [3, 3], "name": "depthwise_conv2d_8", "depth_multiplier": 1, "activation": "linear", "data_format": "channels_last", "depthwise_regularizer": null, "depthwise_constraint": null, "padding": "same", "activity_regularizer": null, "dilation_rate": [1, 1], "trainable": true, "depthwise_initializer": {"config": {"distribution": "uniform", "scale": 1.0, "seed": null, "mode": "fan_avg"}, "class_name": "VarianceScaling"}, "strides": [1, 1], "bias_constraint": null, "bias_initializer": {"config": {}, "class_name": "Zeros"}, "bias_regularizer": null}, "name": "depthwise_conv2d_8", "inbound_nodes": [[["activation_16", 0, 0, {}]]], "class_name": "DepthwiseConv2D"}, {"config": {"name": "batch_normalization_24", "beta_initializer": {"config": {}, "class_name": "Zeros"}, "moving_variance_initializer": {"config": {}, "class_name": "Ones"}, "epsilon": 0.001, "center": true, "axis": -1, "trainable": true, "beta_constraint": null, "moving_mean_initializer": {"config": {}, "class_name": "Zeros"}, "gamma_constraint": null, "scale": true, "gamma_initializer": {"config": {}, "class_name": "Ones"}, "beta_regularizer": null, "momentum": 0.99, "gamma_regularizer": null}, "name": "batch_normalization_24", "inbound_nodes": [[["depthwise_conv2d_8", 0, 0, {}]]], "class_name": "BatchNormalization"}, {"config": {"trainable": true, "name": "activation_17", "activation": "relu6"}, "name": "activation_17", "inbound_nodes": [[["batch_normalization_24", 0, 0, {}]]], "class_name": "Activation"}, {"config": {"use_bias": true, "kernel_size": [1, 1], "name": "conv2d_17", "activation": "linear", "data_format": "channels_last", "kernel_constraint": null, "padding": "same", "kernel_regularizer": null, "activity_regularizer": null, "dilation_rate": [1, 1], "trainable": true, "bias_regularizer": null, "kernel_initializer": {"config": {"distribution": "uniform", "scale": 1.0, "seed": null, "mode": "fan_avg"}, "class_name": "VarianceScaling"}, "strides": [1, 1], "bias_constraint": null, "filters": 64, "bias_initializer": {"config": {}, "class_name": "Zeros"}}, "name": "conv2d_17", "inbound_nodes": [[["activation_17", 0, 0, {}]]], "class_name": "Conv2D"}, {"config": {"name": "batch_normalization_25", "beta_initializer": {"config": {}, "class_name": "Zeros"}, "moving_variance_initializer": {"config": {}, "class_name": "Ones"}, "epsilon": 0.001, "center": true, "axis": -1, "trainable": true, "beta_constraint": null, "moving_mean_initializer": {"config": {}, "class_name": "Zeros"}, "gamma_constraint": null, "scale": true, "gamma_initializer": {"config": {}, "class_name": "Ones"}, "beta_regularizer": null, "momentum": 0.99, "gamma_regularizer": null}, "name": "batch_normalization_25", "inbound_nodes": [[["conv2d_17", 0, 0, {}]]], "class_name": "BatchNormalization"}, {"config": {"trainable": true, "name": "add_4"}, "name": "add_4", "inbound_nodes": [[["batch_normalization_25", 0, 0, {}], ["batch_normalization_22", 0, 0, {}]]], "class_name": "Add"}, {"config": {"use_bias": true, "kernel_size": [1, 1], "name": "conv2d_18", "activation": "linear", "data_format": "channels_last", "kernel_constraint": null, "padding": "same", "kernel_regularizer": null, "activity_regularizer": null, "dilation_rate": [1, 1], "trainable": true, "bias_regularizer": null, "kernel_initializer": {"config": {"distribution": "uniform", "scale": 1.0, "seed": null, "mode": "fan_avg"}, "class_name": "VarianceScaling"}, "strides": [1, 1], "bias_constraint": null, "filters": 384, "bias_initializer": {"config": {}, "class_name": "Zeros"}}, "name": "conv2d_18", "inbound_nodes": [[["add_4", 0, 0, {}]]], "class_name": "Conv2D"}, {"config": {"name": "batch_normalization_26", "beta_initializer": {"config": {}, "class_name": "Zeros"}, "moving_variance_initializer": {"config": {}, "class_name": "Ones"}, "epsilon": 0.001, "center": true, "axis": -1, "trainable": true, "beta_constraint": null, "moving_mean_initializer": {"config": {}, "class_name": "Zeros"}, "gamma_constraint": null, "scale": true, "gamma_initializer": {"config": {}, "class_name": "Ones"}, "beta_regularizer": null, "momentum": 0.99, "gamma_regularizer": null}, "name": "batch_normalization_26", "inbound_nodes": [[["conv2d_18", 0, 0, {}]]], "class_name": "BatchNormalization"}, {"config": {"trainable": true, "name": "activation_18", "activation": "relu6"}, "name": "activation_18", "inbound_nodes": [[["batch_normalization_26", 0, 0, {}]]], "class_name": "Activation"}, {"config": {"use_bias": true, "kernel_size": [3, 3], "name": "depthwise_conv2d_9", "depth_multiplier": 1, "activation": "linear", "data_format": "channels_last", "depthwise_regularizer": null, "depthwise_constraint": null, "padding": "same", "activity_regularizer": null, "dilation_rate": [1, 1], "trainable": true, "depthwise_initializer": {"config": {"distribution": "uniform", "scale": 1.0, "seed": null, "mode": "fan_avg"}, "class_name": "VarianceScaling"}, "strides": [1, 1], "bias_constraint": null, "bias_initializer": {"config": {}, "class_name": "Zeros"}, "bias_regularizer": null}, "name": "depthwise_conv2d_9", "inbound_nodes": [[["activation_18", 0, 0, {}]]], "class_name": "DepthwiseConv2D"}, {"config": {"name": "batch_normalization_27", "beta_initializer": {"config": {}, "class_name": "Zeros"}, "moving_variance_initializer": {"config": {}, "class_name": "Ones"}, "epsilon": 0.001, "center": true, "axis": -1, "trainable": true, "beta_constraint": null, "moving_mean_initializer": {"config": {}, "class_name": "Zeros"}, "gamma_constraint": null, "scale": true, "gamma_initializer": {"config": {}, "class_name": "Ones"}, "beta_regularizer": null, "momentum": 0.99, "gamma_regularizer": null}, "name": "batch_normalization_27", "inbound_nodes": [[["depthwise_conv2d_9", 0, 0, {}]]], "class_name": "BatchNormalization"}, {"config": {"trainable": true, "name": "activation_19", "activation": "relu6"}, "name": "activation_19", "inbound_nodes": [[["batch_normalization_27", 0, 0, {}]]], "class_name": "Activation"}, {"config": {"use_bias": true, "kernel_size": [1, 1], "name": "conv2d_19", "activation": "linear", "data_format": "channels_last", "kernel_constraint": null, "padding": "same", "kernel_regularizer": null, "activity_regularizer": null, "dilation_rate": [1, 1], "trainable": true, "bias_regularizer": null, "kernel_initializer": {"config": {"distribution": "uniform", "scale": 1.0, "seed": null, "mode": "fan_avg"}, "class_name": "VarianceScaling"}, "strides": [1, 1], "bias_constraint": null, "filters": 64, "bias_initializer": {"config": {}, "class_name": "Zeros"}}, "name": "conv2d_19", "inbound_nodes": [[["activation_19", 0, 0, {}]]], "class_name": "Conv2D"}, {"config": {"name": "batch_normalization_28", "beta_initializer": {"config": {}, "class_name": "Zeros"}, "moving_variance_initializer": {"config": {}, "class_name": "Ones"}, "epsilon": 0.001, "center": true, "axis": -1, "trainable": true, "beta_constraint": null, "moving_mean_initializer": {"config": {}, "class_name": "Zeros"}, "gamma_constraint": null, "scale": true, "gamma_initializer": {"config": {}, "class_name": "Ones"}, "beta_regularizer": null, "momentum": 0.99, "gamma_regularizer": null}, "name": "batch_normalization_28", "inbound_nodes": [[["conv2d_19", 0, 0, {}]]], "class_name": "BatchNormalization"}, {"config": {"trainable": true, "name": "add_5"}, "name": "add_5", "inbound_nodes": [[["batch_normalization_28", 0, 0, {}], ["add_4", 0, 0, {}]]], "class_name": "Add"}, {"config": {"use_bias": true, "kernel_size": [1, 1], "name": "conv2d_20", "activation": "linear", "data_format": "channels_last", "kernel_constraint": null, "padding": "same", "kernel_regularizer": null, "activity_regularizer": null, "dilation_rate": [1, 1], "trainable": true, "bias_regularizer": null, "kernel_initializer": {"config": {"distribution": "uniform", "scale": 1.0, "seed": null, "mode": "fan_avg"}, "class_name": "VarianceScaling"}, "strides": [1, 1], "bias_constraint": null, "filters": 384, "bias_initializer": {"config": {}, "class_name": "Zeros"}}, "name": "conv2d_20", "inbound_nodes": [[["add_5", 0, 0, {}]]], "class_name": "Conv2D"}, {"config": {"name": "batch_normalization_29", "beta_initializer": {"config": {}, "class_name": "Zeros"}, "moving_variance_initializer": {"config": {}, "class_name": "Ones"}, "epsilon": 0.001, "center": true, "axis": -1, "trainable": true, "beta_constraint": null, "moving_mean_initializer": {"config": {}, "class_name": "Zeros"}, "gamma_constraint": null, "scale": true, "gamma_initializer": {"config": {}, "class_name": "Ones"}, "beta_regularizer": null, "momentum": 0.99, "gamma_regularizer": null}, "name": "batch_normalization_29", "inbound_nodes": [[["conv2d_20", 0, 0, {}]]], "class_name": "BatchNormalization"}, {"config": {"trainable": true, "name": "activation_20", "activation": "relu6"}, "name": "activation_20", "inbound_nodes": [[["batch_normalization_29", 0, 0, {}]]], "class_name": "Activation"}, {"config": {"use_bias": true, "kernel_size": [3, 3], "name": "depthwise_conv2d_10", "depth_multiplier": 1, "activation": "linear", "data_format": "channels_last", "depthwise_regularizer": null, "depthwise_constraint": null, "padding": "same", "activity_regularizer": null, "dilation_rate": [1, 1], "trainable": true, "depthwise_initializer": {"config": {"distribution": "uniform", "scale": 1.0, "seed": null, "mode": "fan_avg"}, "class_name": "VarianceScaling"}, "strides": [1, 1], "bias_constraint": null, "bias_initializer": {"config": {}, "class_name": "Zeros"}, "bias_regularizer": null}, "name": "depthwise_conv2d_10", "inbound_nodes": [[["activation_20", 0, 0, {}]]], "class_name": "DepthwiseConv2D"}, {"config": {"name": "batch_normalization_30", "beta_initializer": {"config": {}, "class_name": "Zeros"}, "moving_variance_initializer": {"config": {}, "class_name": "Ones"}, "epsilon": 0.001, "center": true, "axis": -1, "trainable": true, "beta_constraint": null, "moving_mean_initializer": {"config": {}, "class_name": "Zeros"}, "gamma_constraint": null, "scale": true, "gamma_initializer": {"config": {}, "class_name": "Ones"}, "beta_regularizer": null, "momentum": 0.99, "gamma_regularizer": null}, "name": "batch_normalization_30", "inbound_nodes": [[["depthwise_conv2d_10", 0, 0, {}]]], "class_name": "BatchNormalization"}, {"config": {"trainable": true, "name": "activation_21", "activation": "relu6"}, "name": "activation_21", "inbound_nodes": [[["batch_normalization_30", 0, 0, {}]]], "class_name": "Activation"}, {"config": {"use_bias": true, "kernel_size": [1, 1], "name": "conv2d_21", "activation": "linear", "data_format": "channels_last", "kernel_constraint": null, "padding": "same", "kernel_regularizer": null, "activity_regularizer": null, "dilation_rate": [1, 1], "trainable": true, "bias_regularizer": null, "kernel_initializer": {"config": {"distribution": "uniform", "scale": 1.0, "seed": null, "mode": "fan_avg"}, "class_name": "VarianceScaling"}, "strides": [1, 1], "bias_constraint": null, "filters": 64, "bias_initializer": {"config": {}, "class_name": "Zeros"}}, "name": "conv2d_21", "inbound_nodes": [[["activation_21", 0, 0, {}]]], "class_name": "Conv2D"}, {"config": {"name": "batch_normalization_31", "beta_initializer": {"config": {}, "class_name": "Zeros"}, "moving_variance_initializer": {"config": {}, "class_name": "Ones"}, "epsilon": 0.001, "center": true, "axis": -1, "trainable": true, "beta_constraint": null, "moving_mean_initializer": {"config": {}, "class_name": "Zeros"}, "gamma_constraint": null, "scale": true, "gamma_initializer": {"config": {}, "class_name": "Ones"}, "beta_regularizer": null, "momentum": 0.99, "gamma_regularizer": null}, "name": "batch_normalization_31", "inbound_nodes": [[["conv2d_21", 0, 0, {}]]], "class_name": "BatchNormalization"}, {"config": {"trainable": true, "name": "add_6"}, "name": "add_6", "inbound_nodes": [[["batch_normalization_31", 0, 0, {}], ["add_5", 0, 0, {}]]], "class_name": "Add"}, {"config": {"use_bias": true, "kernel_size": [1, 1], "name": "conv2d_22", "activation": "linear", "data_format": "channels_last", "kernel_constraint": null, "padding": "same", "kernel_regularizer": null, "activity_regularizer": null, "dilation_rate": [1, 1], "trainable": true, "bias_regularizer": null, "kernel_initializer": {"config": {"distribution": "uniform", "scale": 1.0, "seed": null, "mode": "fan_avg"}, "class_name": "VarianceScaling"}, "strides": [1, 1], "bias_constraint": null, "filters": 384, "bias_initializer": {"config": {}, "class_name": "Zeros"}}, "name": "conv2d_22", "inbound_nodes": [[["add_6", 0, 0, {}]]], "class_name": "Conv2D"}, {"config": {"name": "batch_normalization_32", "beta_initializer": {"config": {}, "class_name": "Zeros"}, "moving_variance_initializer": {"config": {}, "class_name": "Ones"}, "epsilon": 0.001, "center": true, "axis": -1, "trainable": true, "beta_constraint": null, "moving_mean_initializer": {"config": {}, "class_name": "Zeros"}, "gamma_constraint": null, "scale": true, "gamma_initializer": {"config": {}, "class_name": "Ones"}, "beta_regularizer": null, "momentum": 0.99, "gamma_regularizer": null}, "name": "batch_normalization_32", "inbound_nodes": [[["conv2d_22", 0, 0, {}]]], "class_name": "BatchNormalization"}, {"config": {"trainable": true, "name": "activation_22", "activation": "relu6"}, "name": "activation_22", "inbound_nodes": [[["batch_normalization_32", 0, 0, {}]]], "class_name": "Activation"}, {"config": {"use_bias": true, "kernel_size": [3, 3], "name": "depthwise_conv2d_11", "depth_multiplier": 1, "activation": "linear", "data_format": "channels_last", "depthwise_regularizer": null, "depthwise_constraint": null, "padding": "same", "activity_regularizer": null, "dilation_rate": [1, 1], "trainable": true, "depthwise_initializer": {"config": {"distribution": "uniform", "scale": 1.0, "seed": null, "mode": "fan_avg"}, "class_name": "VarianceScaling"}, "strides": [1, 1], "bias_constraint": null, "bias_initializer": {"config": {}, "class_name": "Zeros"}, "bias_regularizer": null}, "name": "depthwise_conv2d_11", "inbound_nodes": [[["activation_22", 0, 0, {}]]], "class_name": "DepthwiseConv2D"}, {"config": {"name": "batch_normalization_33", "beta_initializer": {"config": {}, "class_name": "Zeros"}, "moving_variance_initializer": {"config": {}, "class_name": "Ones"}, "epsilon": 0.001, "center": true, "axis": -1, "trainable": true, "beta_constraint": null, "moving_mean_initializer": {"config": {}, "class_name": "Zeros"}, "gamma_constraint": null, "scale": true, "gamma_initializer": {"config": {}, "class_name": "Ones"}, "beta_regularizer": null, "momentum": 0.99, "gamma_regularizer": null}, "name": "batch_normalization_33", "inbound_nodes": [[["depthwise_conv2d_11", 0, 0, {}]]], "class_name": "BatchNormalization"}, {"config": {"trainable": true, "name": "activation_23", "activation": "relu6"}, "name": "activation_23", "inbound_nodes": [[["batch_normalization_33", 0, 0, {}]]], "class_name": "Activation"}, {"config": {"use_bias": true, "kernel_size": [1, 1], "name": "conv2d_23", "activation": "linear", "data_format": "channels_last", "kernel_constraint": null, "padding": "same", "kernel_regularizer": null, "activity_regularizer": null, "dilation_rate": [1, 1], "trainable": true, "bias_regularizer": null, "kernel_initializer": {"config": {"distribution": "uniform", "scale": 1.0, "seed": null, "mode": "fan_avg"}, "class_name": "VarianceScaling"}, "strides": [1, 1], "bias_constraint": null, "filters": 96, "bias_initializer": {"config": {}, "class_name": "Zeros"}}, "name": "conv2d_23", "inbound_nodes": [[["activation_23", 0, 0, {}]]], "class_name": "Conv2D"}, {"config": {"name": "batch_normalization_34", "beta_initializer": {"config": {}, "class_name": "Zeros"}, "moving_variance_initializer": {"config": {}, "class_name": "Ones"}, "epsilon": 0.001, "center": true, "axis": -1, "trainable": true, "beta_constraint": null, "moving_mean_initializer": {"config": {}, "class_name": "Zeros"}, "gamma_constraint": null, "scale": true, "gamma_initializer": {"config": {}, "class_name": "Ones"}, "beta_regularizer": null, "momentum": 0.99, "gamma_regularizer": null}, "name": "batch_normalization_34", "inbound_nodes": [[["conv2d_23", 0, 0, {}]]], "class_name": "BatchNormalization"}, {"config": {"use_bias": true, "kernel_size": [1, 1], "name": "conv2d_24", "activation": "linear", "data_format": "channels_last", "kernel_constraint": null, "padding": "same", "kernel_regularizer": null, "activity_regularizer": null, "dilation_rate": [1, 1], "trainable": true, "bias_regularizer": null, "kernel_initializer": {"config": {"distribution": "uniform", "scale": 1.0, "seed": null, "mode": "fan_avg"}, "class_name": "VarianceScaling"}, "strides": [1, 1], "bias_constraint": null, "filters": 576, "bias_initializer": {"config": {}, "class_name": "Zeros"}}, "name": "conv2d_24", "inbound_nodes": [[["batch_normalization_34", 0, 0, {}]]], "class_name": "Conv2D"}, {"config": {"name": "batch_normalization_35", "beta_initializer": {"config": {}, "class_name": "Zeros"}, "moving_variance_initializer": {"config": {}, "class_name": "Ones"}, "epsilon": 0.001, "center": true, "axis": -1, "trainable": true, "beta_constraint": null, "moving_mean_initializer": {"config": {}, "class_name": "Zeros"}, "gamma_constraint": null, "scale": true, "gamma_initializer": {"config": {}, "class_name": "Ones"}, "beta_regularizer": null, "momentum": 0.99, "gamma_regularizer": null}, "name": "batch_normalization_35", "inbound_nodes": [[["conv2d_24", 0, 0, {}]]], "class_name": "BatchNormalization"}, {"config": {"trainable": true, "name": "activation_24", "activation": "relu6"}, "name": "activation_24", "inbound_nodes": [[["batch_normalization_35", 0, 0, {}]]], "class_name": "Activation"}, {"config": {"use_bias": true, "kernel_size": [3, 3], "name": "depthwise_conv2d_12", "depth_multiplier": 1, "activation": "linear", "data_format": "channels_last", "depthwise_regularizer": null, "depthwise_constraint": null, "padding": "same", "activity_regularizer": null, "dilation_rate": [1, 1], "trainable": true, "depthwise_initializer": {"config": {"distribution": "uniform", "scale": 1.0, "seed": null, "mode": "fan_avg"}, "class_name": "VarianceScaling"}, "strides": [1, 1], "bias_constraint": null, "bias_initializer": {"config": {}, "class_name": "Zeros"}, "bias_regularizer": null}, "name": "depthwise_conv2d_12", "inbound_nodes": [[["activation_24", 0, 0, {}]]], "class_name": "DepthwiseConv2D"}, {"config": {"name": "batch_normalization_36", "beta_initializer": {"config": {}, "class_name": "Zeros"}, "moving_variance_initializer": {"config": {}, "class_name": "Ones"}, "epsilon": 0.001, "center": true, "axis": -1, "trainable": true, "beta_constraint": null, "moving_mean_initializer": {"config": {}, "class_name": "Zeros"}, "gamma_constraint": null, "scale": true, "gamma_initializer": {"config": {}, "class_name": "Ones"}, "beta_regularizer": null, "momentum": 0.99, "gamma_regularizer": null}, "name": "batch_normalization_36", "inbound_nodes": [[["depthwise_conv2d_12", 0, 0, {}]]], "class_name": "BatchNormalization"}, {"config": {"trainable": true, "name": "activation_25", "activation": "relu6"}, "name": "activation_25", "inbound_nodes": [[["batch_normalization_36", 0, 0, {}]]], "class_name": "Activation"}, {"config": {"use_bias": true, "kernel_size": [1, 1], "name": "conv2d_25", "activation": "linear", "data_format": "channels_last", "kernel_constraint": null, "padding": "same", "kernel_regularizer": null, "activity_regularizer": null, "dilation_rate": [1, 1], "trainable": true, "bias_regularizer": null, "kernel_initializer": {"config": {"distribution": "uniform", "scale": 1.0, "seed": null, "mode": "fan_avg"}, "class_name": "VarianceScaling"}, "strides": [1, 1], "bias_constraint": null, "filters": 96, "bias_initializer": {"config": {}, "class_name": "Zeros"}}, "name": "conv2d_25", "inbound_nodes": [[["activation_25", 0, 0, {}]]], "class_name": "Conv2D"}, {"config": {"name": "batch_normalization_37", "beta_initializer": {"config": {}, "class_name": "Zeros"}, "moving_variance_initializer": {"config": {}, "class_name": "Ones"}, "epsilon": 0.001, "center": true, "axis": -1, "trainable": true, "beta_constraint": null, "moving_mean_initializer": {"config": {}, "class_name": "Zeros"}, "gamma_constraint": null, "scale": true, "gamma_initializer": {"config": {}, "class_name": "Ones"}, "beta_regularizer": null, "momentum": 0.99, "gamma_regularizer": null}, "name": "batch_normalization_37", "inbound_nodes": [[["conv2d_25", 0, 0, {}]]], "class_name": "BatchNormalization"}, {"config": {"trainable": true, "name": "add_7"}, "name": "add_7", "inbound_nodes": [[["batch_normalization_37", 0, 0, {}], ["batch_normalization_34", 0, 0, {}]]], "class_name": "Add"}, {"config": {"use_bias": true, "kernel_size": [1, 1], "name": "conv2d_26", "activation": "linear", "data_format": "channels_last", "kernel_constraint": null, "padding": "same", "kernel_regularizer": null, "activity_regularizer": null, "dilation_rate": [1, 1], "trainable": true, "bias_regularizer": null, "kernel_initializer": {"config": {"distribution": "uniform", "scale": 1.0, "seed": null, "mode": "fan_avg"}, "class_name": "VarianceScaling"}, "strides": [1, 1], "bias_constraint": null, "filters": 576, "bias_initializer": {"config": {}, "class_name": "Zeros"}}, "name": "conv2d_26", "inbound_nodes": [[["add_7", 0, 0, {}]]], "class_name": "Conv2D"}, {"config": {"name": "batch_normalization_38", "beta_initializer": {"config": {}, "class_name": "Zeros"}, "moving_variance_initializer": {"config": {}, "class_name": "Ones"}, "epsilon": 0.001, "center": true, "axis": -1, "trainable": true, "beta_constraint": null, "moving_mean_initializer": {"config": {}, "class_name": "Zeros"}, "gamma_constraint": null, "scale": true, "gamma_initializer": {"config": {}, "class_name": "Ones"}, "beta_regularizer": null, "momentum": 0.99, "gamma_regularizer": null}, "name": "batch_normalization_38", "inbound_nodes": [[["conv2d_26", 0, 0, {}]]], "class_name": "BatchNormalization"}, {"config": {"trainable": true, "name": "activation_26", "activation": "relu6"}, "name": "activation_26", "inbound_nodes": [[["batch_normalization_38", 0, 0, {}]]], "class_name": "Activation"}, {"config": {"use_bias": true, "kernel_size": [3, 3], "name": "depthwise_conv2d_13", "depth_multiplier": 1, "activation": "linear", "data_format": "channels_last", "depthwise_regularizer": null, "depthwise_constraint": null, "padding": "same", "activity_regularizer": null, "dilation_rate": [1, 1], "trainable": true, "depthwise_initializer": {"config": {"distribution": "uniform", "scale": 1.0, "seed": null, "mode": "fan_avg"}, "class_name": "VarianceScaling"}, "strides": [1, 1], "bias_constraint": null, "bias_initializer": {"config": {}, "class_name": "Zeros"}, "bias_regularizer": null}, "name": "depthwise_conv2d_13", "inbound_nodes": [[["activation_26", 0, 0, {}]]], "class_name": "DepthwiseConv2D"}, {"config": {"name": "batch_normalization_39", "beta_initializer": {"config": {}, "class_name": "Zeros"}, "moving_variance_initializer": {"config": {}, "class_name": "Ones"}, "epsilon": 0.001, "center": true, "axis": -1, "trainable": true, "beta_constraint": null, "moving_mean_initializer": {"config": {}, "class_name": "Zeros"}, "gamma_constraint": null, "scale": true, "gamma_initializer": {"config": {}, "class_name": "Ones"}, "beta_regularizer": null, "momentum": 0.99, "gamma_regularizer": null}, "name": "batch_normalization_39", "inbound_nodes": [[["depthwise_conv2d_13", 0, 0, {}]]], "class_name": "BatchNormalization"}, {"config": {"trainable": true, "name": "activation_27", "activation": "relu6"}, "name": "activation_27", "inbound_nodes": [[["batch_normalization_39", 0, 0, {}]]], "class_name": "Activation"}, {"config": {"use_bias": true, "kernel_size": [1, 1], "name": "conv2d_27", "activation": "linear", "data_format": "channels_last", "kernel_constraint": null, "padding": "same", "kernel_regularizer": null, "activity_regularizer": null, "dilation_rate": [1, 1], "trainable": true, "bias_regularizer": null, "kernel_initializer": {"config": {"distribution": "uniform", "scale": 1.0, "seed": null, "mode": "fan_avg"}, "class_name": "VarianceScaling"}, "strides": [1, 1], "bias_constraint": null, "filters": 96, "bias_initializer": {"config": {}, "class_name": "Zeros"}}, "name": "conv2d_27", "inbound_nodes": [[["activation_27", 0, 0, {}]]], "class_name": "Conv2D"}, {"config": {"name": "batch_normalization_40", "beta_initializer": {"config": {}, "class_name": "Zeros"}, "moving_variance_initializer": {"config": {}, "class_name": "Ones"}, "epsilon": 0.001, "center": true, "axis": -1, "trainable": true, "beta_constraint": null, "moving_mean_initializer": {"config": {}, "class_name": "Zeros"}, "gamma_constraint": null, "scale": true, "gamma_initializer": {"config": {}, "class_name": "Ones"}, "beta_regularizer": null, "momentum": 0.99, "gamma_regularizer": null}, "name": "batch_normalization_40", "inbound_nodes": [[["conv2d_27", 0, 0, {}]]], "class_name": "BatchNormalization"}, {"config": {"trainable": true, "name": "add_8"}, "name": "add_8", "inbound_nodes": [[["batch_normalization_40", 0, 0, {}], ["add_7", 0, 0, {}]]], "class_name": "Add"}, {"config": {"use_bias": true, "kernel_size": [1, 1], "name": "conv2d_28", "activation": "linear", "data_format": "channels_last", "kernel_constraint": null, "padding": "same", "kernel_regularizer": null, "activity_regularizer": null, "dilation_rate": [1, 1], "trainable": true, "bias_regularizer": null, "kernel_initializer": {"config": {"distribution": "uniform", "scale": 1.0, "seed": null, "mode": "fan_avg"}, "class_name": "VarianceScaling"}, "strides": [1, 1], "bias_constraint": null, "filters": 576, "bias_initializer": {"config": {}, "class_name": "Zeros"}}, "name": "conv2d_28", "inbound_nodes": [[["add_8", 0, 0, {}]]], "class_name": "Conv2D"}, {"config": {"name": "batch_normalization_41", "beta_initializer": {"config": {}, "class_name": "Zeros"}, "moving_variance_initializer": {"config": {}, "class_name": "Ones"}, "epsilon": 0.001, "center": true, "axis": -1, "trainable": true, "beta_constraint": null, "moving_mean_initializer": {"config": {}, "class_name": "Zeros"}, "gamma_constraint": null, "scale": true, "gamma_initializer": {"config": {}, "class_name": "Ones"}, "beta_regularizer": null, "momentum": 0.99, "gamma_regularizer": null}, "name": "batch_normalization_41", "inbound_nodes": [[["conv2d_28", 0, 0, {}]]], "class_name": "BatchNormalization"}, {"config": {"trainable": true, "name": "activation_28", "activation": "relu6"}, "name": "activation_28", "inbound_nodes": [[["batch_normalization_41", 0, 0, {}]]], "class_name": "Activation"}, {"config": {"use_bias": true, "kernel_size": [3, 3], "name": "depthwise_conv2d_14", "depth_multiplier": 1, "activation": "linear", "data_format": "channels_last", "depthwise_regularizer": null, "depthwise_constraint": null, "padding": "same", "activity_regularizer": null, "dilation_rate": [1, 1], "trainable": true, "depthwise_initializer": {"config": {"distribution": "uniform", "scale": 1.0, "seed": null, "mode": "fan_avg"}, "class_name": "VarianceScaling"}, "strides": [2, 2], "bias_constraint": null, "bias_initializer": {"config": {}, "class_name": "Zeros"}, "bias_regularizer": null}, "name": "depthwise_conv2d_14", "inbound_nodes": [[["activation_28", 0, 0, {}]]], "class_name": "DepthwiseConv2D"}, {"config": {"name": "batch_normalization_42", "beta_initializer": {"config": {}, "class_name": "Zeros"}, "moving_variance_initializer": {"config": {}, "class_name": "Ones"}, "epsilon": 0.001, "center": true, "axis": -1, "trainable": true, "beta_constraint": null, "moving_mean_initializer": {"config": {}, "class_name": "Zeros"}, "gamma_constraint": null, "scale": true, "gamma_initializer": {"config": {}, "class_name": "Ones"}, "beta_regularizer": null, "momentum": 0.99, "gamma_regularizer": null}, "name": "batch_normalization_42", "inbound_nodes": [[["depthwise_conv2d_14", 0, 0, {}]]], "class_name": "BatchNormalization"}, {"config": {"trainable": true, "name": "activation_29", "activation": "relu6"}, "name": "activation_29", "inbound_nodes": [[["batch_normalization_42", 0, 0, {}]]], "class_name": "Activation"}, {"config": {"use_bias": true, "kernel_size": [1, 1], "name": "conv2d_29", "activation": "linear", "data_format": "channels_last", "kernel_constraint": null, "padding": "same", "kernel_regularizer": null, "activity_regularizer": null, "dilation_rate": [1, 1], "trainable": true, "bias_regularizer": null, "kernel_initializer": {"config": {"distribution": "uniform", "scale": 1.0, "seed": null, "mode": "fan_avg"}, "class_name": "VarianceScaling"}, "strides": [1, 1], "bias_constraint": null, "filters": 160, "bias_initializer": {"config": {}, "class_name": "Zeros"}}, "name": "conv2d_29", "inbound_nodes": [[["activation_29", 0, 0, {}]]], "class_name": "Conv2D"}, {"config": {"name": "batch_normalization_43", "beta_initializer": {"config": {}, "class_name": "Zeros"}, "moving_variance_initializer": {"config": {}, "class_name": "Ones"}, "epsilon": 0.001, "center": true, "axis": -1, "trainable": true, "beta_constraint": null, "moving_mean_initializer": {"config": {}, "class_name": "Zeros"}, "gamma_constraint": null, "scale": true, "gamma_initializer": {"config": {}, "class_name": "Ones"}, "beta_regularizer": null, "momentum": 0.99, "gamma_regularizer": null}, "name": "batch_normalization_43", "inbound_nodes": [[["conv2d_29", 0, 0, {}]]], "class_name": "BatchNormalization"}, {"config": {"use_bias": true, "kernel_size": [1, 1], "name": "conv2d_30", "activation": "linear", "data_format": "channels_last", "kernel_constraint": null, "padding": "same", "kernel_regularizer": null, "activity_regularizer": null, "dilation_rate": [1, 1], "trainable": true, "bias_regularizer": null, "kernel_initializer": {"config": {"distribution": "uniform", "scale": 1.0, "seed": null, "mode": "fan_avg"}, "class_name": "VarianceScaling"}, "strides": [1, 1], "bias_constraint": null, "filters": 960, "bias_initializer": {"config": {}, "class_name": "Zeros"}}, "name": "conv2d_30", "inbound_nodes": [[["batch_normalization_43", 0, 0, {}]]], "class_name": "Conv2D"}, {"config": {"name": "batch_normalization_44", "beta_initializer": {"config": {}, "class_name": "Zeros"}, "moving_variance_initializer": {"config": {}, "class_name": "Ones"}, "epsilon": 0.001, "center": true, "axis": -1, "trainable": true, "beta_constraint": null, "moving_mean_initializer": {"config": {}, "class_name": "Zeros"}, "gamma_constraint": null, "scale": true, "gamma_initializer": {"config": {}, "class_name": "Ones"}, "beta_regularizer": null, "momentum": 0.99, "gamma_regularizer": null}, "name": "batch_normalization_44", "inbound_nodes": [[["conv2d_30", 0, 0, {}]]], "class_name": "BatchNormalization"}, {"config": {"trainable": true, "name": "activation_30", "activation": "relu6"}, "name": "activation_30", "inbound_nodes": [[["batch_normalization_44", 0, 0, {}]]], "class_name": "Activation"}, {"config": {"use_bias": true, "kernel_size": [3, 3], "name": "depthwise_conv2d_15", "depth_multiplier": 1, "activation": "linear", "data_format": "channels_last", "depthwise_regularizer": null, "depthwise_constraint": null, "padding": "same", "activity_regularizer": null, "dilation_rate": [1, 1], "trainable": true, "depthwise_initializer": {"config": {"distribution": "uniform", "scale": 1.0, "seed": null, "mode": "fan_avg"}, "class_name": "VarianceScaling"}, "strides": [1, 1], "bias_constraint": null, "bias_initializer": {"config": {}, "class_name": "Zeros"}, "bias_regularizer": null}, "name": "depthwise_conv2d_15", "inbound_nodes": [[["activation_30", 0, 0, {}]]], "class_name": "DepthwiseConv2D"}, {"config": {"name": "batch_normalization_45", "beta_initializer": {"config": {}, "class_name": "Zeros"}, "moving_variance_initializer": {"config": {}, "class_name": "Ones"}, "epsilon": 0.001, "center": true, "axis": -1, "trainable": true, "beta_constraint": null, "moving_mean_initializer": {"config": {}, "class_name": "Zeros"}, "gamma_constraint": null, "scale": true, "gamma_initializer": {"config": {}, "class_name": "Ones"}, "beta_regularizer": null, "momentum": 0.99, "gamma_regularizer": null}, "name": "batch_normalization_45", "inbound_nodes": [[["depthwise_conv2d_15", 0, 0, {}]]], "class_name": "BatchNormalization"}, {"config": {"trainable": true, "name": "activation_31", "activation": "relu6"}, "name": "activation_31", "inbound_nodes": [[["batch_normalization_45", 0, 0, {}]]], "class_name": "Activation"}, {"config": {"use_bias": true, "kernel_size": [1, 1], "name": "conv2d_31", "activation": "linear", "data_format": "channels_last", "kernel_constraint": null, "padding": "same", "kernel_regularizer": null, "activity_regularizer": null, "dilation_rate": [1, 1], "trainable": true, "bias_regularizer": null, "kernel_initializer": {"config": {"distribution": "uniform", "scale": 1.0, "seed": null, "mode": "fan_avg"}, "class_name": "VarianceScaling"}, "strides": [1, 1], "bias_constraint": null, "filters": 160, "bias_initializer": {"config": {}, "class_name": "Zeros"}}, "name": "conv2d_31", "inbound_nodes": [[["activation_31", 0, 0, {}]]], "class_name": "Conv2D"}, {"config": {"name": "batch_normalization_46", "beta_initializer": {"config": {}, "class_name": "Zeros"}, "moving_variance_initializer": {"config": {}, "class_name": "Ones"}, "epsilon": 0.001, "center": true, "axis": -1, "trainable": true, "beta_constraint": null, "moving_mean_initializer": {"config": {}, "class_name": "Zeros"}, "gamma_constraint": null, "scale": true, "gamma_initializer": {"config": {}, "class_name": "Ones"}, "beta_regularizer": null, "momentum": 0.99, "gamma_regularizer": null}, "name": "batch_normalization_46", "inbound_nodes": [[["conv2d_31", 0, 0, {}]]], "class_name": "BatchNormalization"}, {"config": {"trainable": true, "name": "add_9"}, "name": "add_9", "inbound_nodes": [[["batch_normalization_46", 0, 0, {}], ["batch_normalization_43", 0, 0, {}]]], "class_name": "Add"}, {"config": {"use_bias": true, "kernel_size": [1, 1], "name": "conv2d_32", "activation": "linear", "data_format": "channels_last", "kernel_constraint": null, "padding": "same", "kernel_regularizer": null, "activity_regularizer": null, "dilation_rate": [1, 1], "trainable": true, "bias_regularizer": null, "kernel_initializer": {"config": {"distribution": "uniform", "scale": 1.0, "seed": null, "mode": "fan_avg"}, "class_name": "VarianceScaling"}, "strides": [1, 1], "bias_constraint": null, "filters": 960, "bias_initializer": {"config": {}, "class_name": "Zeros"}}, "name": "conv2d_32", "inbound_nodes": [[["add_9", 0, 0, {}]]], "class_name": "Conv2D"}, {"config": {"name": "batch_normalization_47", "beta_initializer": {"config": {}, "class_name": "Zeros"}, "moving_variance_initializer": {"config": {}, "class_name": "Ones"}, "epsilon": 0.001, "center": true, "axis": -1, "trainable": true, "beta_constraint": null, "moving_mean_initializer": {"config": {}, "class_name": "Zeros"}, "gamma_constraint": null, "scale": true, "gamma_initializer": {"config": {}, "class_name": "Ones"}, "beta_regularizer": null, "momentum": 0.99, "gamma_regularizer": null}, "name": "batch_normalization_47", "inbound_nodes": [[["conv2d_32", 0, 0, {}]]], "class_name": "BatchNormalization"}, {"config": {"trainable": true, "name": "activation_32", "activation": "relu6"}, "name": "activation_32", "inbound_nodes": [[["batch_normalization_47", 0, 0, {}]]], "class_name": "Activation"}, {"config": {"use_bias": true, "kernel_size": [3, 3], "name": "depthwise_conv2d_16", "depth_multiplier": 1, "activation": "linear", "data_format": "channels_last", "depthwise_regularizer": null, "depthwise_constraint": null, "padding": "same", "activity_regularizer": null, "dilation_rate": [1, 1], "trainable": true, "depthwise_initializer": {"config": {"distribution": "uniform", "scale": 1.0, "seed": null, "mode": "fan_avg"}, "class_name": "VarianceScaling"}, "strides": [1, 1], "bias_constraint": null, "bias_initializer": {"config": {}, "class_name": "Zeros"}, "bias_regularizer": null}, "name": "depthwise_conv2d_16", "inbound_nodes": [[["activation_32", 0, 0, {}]]], "class_name": "DepthwiseConv2D"}, {"config": {"name": "batch_normalization_48", "beta_initializer": {"config": {}, "class_name": "Zeros"}, "moving_variance_initializer": {"config": {}, "class_name": "Ones"}, "epsilon": 0.001, "center": true, "axis": -1, "trainable": true, "beta_constraint": null, "moving_mean_initializer": {"config": {}, "class_name": "Zeros"}, "gamma_constraint": null, "scale": true, "gamma_initializer": {"config": {}, "class_name": "Ones"}, "beta_regularizer": null, "momentum": 0.99, "gamma_regularizer": null}, "name": "batch_normalization_48", "inbound_nodes": [[["depthwise_conv2d_16", 0, 0, {}]]], "class_name": "BatchNormalization"}, {"config": {"trainable": true, "name": "activation_33", "activation": "relu6"}, "name": "activation_33", "inbound_nodes": [[["batch_normalization_48", 0, 0, {}]]], "class_name": "Activation"}, {"config": {"use_bias": true, "kernel_size": [1, 1], "name": "conv2d_33", "activation": "linear", "data_format": "channels_last", "kernel_constraint": null, "padding": "same", "kernel_regularizer": null, "activity_regularizer": null, "dilation_rate": [1, 1], "trainable": true, "bias_regularizer": null, "kernel_initializer": {"config": {"distribution": "uniform", "scale": 1.0, "seed": null, "mode": "fan_avg"}, "class_name": "VarianceScaling"}, "strides": [1, 1], "bias_constraint": null, "filters": 160, "bias_initializer": {"config": {}, "class_name": "Zeros"}}, "name": "conv2d_33", "inbound_nodes": [[["activation_33", 0, 0, {}]]], "class_name": "Conv2D"}, {"config": {"name": "batch_normalization_49", "beta_initializer": {"config": {}, "class_name": "Zeros"}, "moving_variance_initializer": {"config": {}, "class_name": "Ones"}, "epsilon": 0.001, "center": true, "axis": -1, "trainable": true, "beta_constraint": null, "moving_mean_initializer": {"config": {}, "class_name": "Zeros"}, "gamma_constraint": null, "scale": true, "gamma_initializer": {"config": {}, "class_name": "Ones"}, "beta_regularizer": null, "momentum": 0.99, "gamma_regularizer": null}, "name": "batch_normalization_49", "inbound_nodes": [[["conv2d_33", 0, 0, {}]]], "class_name": "BatchNormalization"}, {"config": {"trainable": true, "name": "add_10"}, "name": "add_10", "inbound_nodes": [[["batch_normalization_49", 0, 0, {}], ["add_9", 0, 0, {}]]], "class_name": "Add"}, {"config": {"use_bias": true, "kernel_size": [1, 1], "name": "conv2d_34", "activation": "linear", "data_format": "channels_last", "kernel_constraint": null, "padding": "same", "kernel_regularizer": null, "activity_regularizer": null, "dilation_rate": [1, 1], "trainable": true, "bias_regularizer": null, "kernel_initializer": {"config": {"distribution": "uniform", "scale": 1.0, "seed": null, "mode": "fan_avg"}, "class_name": "VarianceScaling"}, "strides": [1, 1], "bias_constraint": null, "filters": 960, "bias_initializer": {"config": {}, "class_name": "Zeros"}}, "name": "conv2d_34", "inbound_nodes": [[["add_10", 0, 0, {}]]], "class_name": "Conv2D"}, {"config": {"name": "batch_normalization_50", "beta_initializer": {"config": {}, "class_name": "Zeros"}, "moving_variance_initializer": {"config": {}, "class_name": "Ones"}, "epsilon": 0.001, "center": true, "axis": -1, "trainable": true, "beta_constraint": null, "moving_mean_initializer": {"config": {}, "class_name": "Zeros"}, "gamma_constraint": null, "scale": true, "gamma_initializer": {"config": {}, "class_name": "Ones"}, "beta_regularizer": null, "momentum": 0.99, "gamma_regularizer": null}, "name": "batch_normalization_50", "inbound_nodes": [[["conv2d_34", 0, 0, {}]]], "class_name": "BatchNormalization"}, {"config": {"trainable": true, "name": "activation_34", "activation": "relu6"}, "name": "activation_34", "inbound_nodes": [[["batch_normalization_50", 0, 0, {}]]], "class_name": "Activation"}, {"config": {"use_bias": true, "kernel_size": [3, 3], "name": "depthwise_conv2d_17", "depth_multiplier": 1, "activation": "linear", "data_format": "channels_last", "depthwise_regularizer": null, "depthwise_constraint": null, "padding": "same", "activity_regularizer": null, "dilation_rate": [1, 1], "trainable": true, "depthwise_initializer": {"config": {"distribution": "uniform", "scale": 1.0, "seed": null, "mode": "fan_avg"}, "class_name": "VarianceScaling"}, "strides": [1, 1], "bias_constraint": null, "bias_initializer": {"config": {}, "class_name": "Zeros"}, "bias_regularizer": null}, "name": "depthwise_conv2d_17", "inbound_nodes": [[["activation_34", 0, 0, {}]]], "class_name": "DepthwiseConv2D"}, {"config": {"name": "batch_normalization_51", "beta_initializer": {"config": {}, "class_name": "Zeros"}, "moving_variance_initializer": {"config": {}, "class_name": "Ones"}, "epsilon": 0.001, "center": true, "axis": -1, "trainable": true, "beta_constraint": null, "moving_mean_initializer": {"config": {}, "class_name": "Zeros"}, "gamma_constraint": null, "scale": true, "gamma_initializer": {"config": {}, "class_name": "Ones"}, "beta_regularizer": null, "momentum": 0.99, "gamma_regularizer": null}, "name": "batch_normalization_51", "inbound_nodes": [[["depthwise_conv2d_17", 0, 0, {}]]], "class_name": "BatchNormalization"}, {"config": {"trainable": true, "name": "activation_35", "activation": "relu6"}, "name": "activation_35", "inbound_nodes": [[["batch_normalization_51", 0, 0, {}]]], "class_name": "Activation"}, {"config": {"use_bias": true, "kernel_size": [1, 1], "name": "conv2d_35", "activation": "linear", "data_format": "channels_last", "kernel_constraint": null, "padding": "same", "kernel_regularizer": null, "activity_regularizer": null, "dilation_rate": [1, 1], "trainable": true, "bias_regularizer": null, "kernel_initializer": {"config": {"distribution": "uniform", "scale": 1.0, "seed": null, "mode": "fan_avg"}, "class_name": "VarianceScaling"}, "strides": [1, 1], "bias_constraint": null, "filters": 320, "bias_initializer": {"config": {}, "class_name": "Zeros"}}, "name": "conv2d_35", "inbound_nodes": [[["activation_35", 0, 0, {}]]], "class_name": "Conv2D"}, {"config": {"name": "batch_normalization_52", "beta_initializer": {"config": {}, "class_name": "Zeros"}, "moving_variance_initializer": {"config": {}, "class_name": "Ones"}, "epsilon": 0.001, "center": true, "axis": -1, "trainable": true, "beta_constraint": null, "moving_mean_initializer": {"config": {}, "class_name": "Zeros"}, "gamma_constraint": null, "scale": true, "gamma_initializer": {"config": {}, "class_name": "Ones"}, "beta_regularizer": null, "momentum": 0.99, "gamma_regularizer": null}, "name": "batch_normalization_52", "inbound_nodes": [[["conv2d_35", 0, 0, {}]]], "class_name": "BatchNormalization"}, {"config": {"use_bias": true, "kernel_size": [1, 1], "name": "conv2d_36", "activation": "linear", "data_format": "channels_last", "kernel_constraint": null, "padding": "same", "kernel_regularizer": null, "activity_regularizer": null, "dilation_rate": [1, 1], "trainable": true, "bias_regularizer": null, "kernel_initializer": {"config": {"distribution": "uniform", "scale": 1.0, "seed": null, "mode": "fan_avg"}, "class_name": "VarianceScaling"}, "strides": [1, 1], "bias_constraint": null, "filters": 1280, "bias_initializer": {"config": {}, "class_name": "Zeros"}}, "name": "conv2d_36", "inbound_nodes": [[["batch_normalization_52", 0, 0, {}]]], "class_name": "Conv2D"}, {"config": {"name": "batch_normalization_53", "beta_initializer": {"config": {}, "class_name": "Zeros"}, "moving_variance_initializer": {"config": {}, "class_name": "Ones"}, "epsilon": 0.001, "center": true, "axis": -1, "trainable": true, "beta_constraint": null, "moving_mean_initializer": {"config": {}, "class_name": "Zeros"}, "gamma_constraint": null, "scale": true, "gamma_initializer": {"config": {}, "class_name": "Ones"}, "beta_regularizer": null, "momentum": 0.99, "gamma_regularizer": null}, "name": "batch_normalization_53", "inbound_nodes": [[["conv2d_36", 0, 0, {}]]], "class_name": "BatchNormalization"}, {"config": {"trainable": true, "name": "activation_36", "activation": "relu6"}, "name": "activation_36", "inbound_nodes": [[["batch_normalization_53", 0, 0, {}]]], "class_name": "Activation"}, {"config": {"trainable": true, "name": "global_average_pooling2d_1", "data_format": "channels_last"}, "name": "global_average_pooling2d_1", "inbound_nodes": [[["activation_36", 0, 0, {}]]], "class_name": "GlobalAveragePooling2D"}, {"config": {"target_shape": [1, 1, 1280], "trainable": true, "name": "reshape_1"}, "name": "reshape_1", "inbound_nodes": [[["global_average_pooling2d_1", 0, 0, {}]]], "class_name": "Reshape"}, {"config": {"trainable": true, "name": "Dropout", "noise_shape": null, "seed": null, "rate": 0.3}, "name": "Dropout", "inbound_nodes": [[["reshape_1", 0, 0, {}]]], "class_name": "Dropout"}, {"config": {"use_bias": true, "kernel_size": [1, 1], "name": "conv2d_37", "activation": "linear", "data_format": "channels_last", "kernel_constraint": null, "padding": "same", "kernel_regularizer": null, "activity_regularizer": null, "dilation_rate": [1, 1], "trainable": true, "bias_regularizer": null, "kernel_initializer": {"config": {"distribution": "uniform", "scale": 1.0, "seed": null, "mode": "fan_avg"}, "class_name": "VarianceScaling"}, "strides": [1, 1], "bias_constraint": null, "filters": 132, "bias_initializer": {"config": {}, "class_name": "Zeros"}}, "name": "conv2d_37", "inbound_nodes": [[["Dropout", 0, 0, {}]]], "class_name": "Conv2D"}, {"config": {"trainable": true, "name": "softmax", "activation": "softmax"}, "name": "softmax", "inbound_nodes": [[["conv2d_37", 0, 0, {}]]], "class_name": "Activation"}, {"config": {"target_shape": [132], "trainable": true, "name": "reshape_2"}, "name": "reshape_2", "inbound_nodes": [[["softmax", 0, 0, {}]]], "class_name": "Reshape"}], "input_layers": [["input_1", 0, 0]], "name": "model_1", "output_layers": [["reshape_2", 0, 0]]}, "class_name": "Model"}, "keras_version": "2.1.3"}, "weightsManifest": [{"paths": ["group1-shard1of3", "group1-shard2of3", "group1-shard3of3"], "weights": [{"dtype": "float32", "name": "batch_normalization_1/gamma", "shape": [32]}, {"dtype": "float32", "name": "batch_normalization_1/beta", "shape": [32]}, {"dtype": "float32", "name": "batch_normalization_1/moving_mean", "shape": [32]}, {"dtype": "float32", "name": "batch_normalization_1/moving_variance", "shape": [32]}, {"dtype": "float32", "name": "batch_normalization_10/gamma", "shape": [24]}, {"dtype": "float32", "name": "batch_normalization_10/beta", "shape": [24]}, {"dtype": "float32", "name": "batch_normalization_10/moving_mean", "shape": [24]}, {"dtype": "float32", "name": "batch_normalization_10/moving_variance", "shape": [24]}, {"dtype": "float32", "name": "batch_normalization_11/gamma", "shape": [144]}, {"dtype": "float32", "name": "batch_normalization_11/beta", "shape": [144]}, {"dtype": "float32", "name": "batch_normalization_11/moving_mean", "shape": [144]}, {"dtype": "float32", "name": "batch_normalization_11/moving_variance", "shape": [144]}, {"dtype": "float32", "name": "batch_normalization_12/gamma", "shape": [144]}, {"dtype": "float32", "name": "batch_normalization_12/beta", "shape": [144]}, {"dtype": "float32", "name": "batch_normalization_12/moving_mean", "shape": [144]}, {"dtype": "float32", "name": "batch_normalization_12/moving_variance", "shape": [144]}, {"dtype": "float32", "name": "batch_normalization_13/gamma", "shape": [32]}, {"dtype": "float32", "name": "batch_normalization_13/beta", "shape": [32]}, {"dtype": "float32", "name": "batch_normalization_13/moving_mean", "shape": [32]}, {"dtype": "float32", "name": "batch_normalization_13/moving_variance", "shape": [32]}, {"dtype": "float32", "name": "batch_normalization_14/gamma", "shape": [192]}, {"dtype": "float32", "name": "batch_normalization_14/beta", "shape": [192]}, {"dtype": "float32", "name": "batch_normalization_14/moving_mean", "shape": [192]}, {"dtype": "float32", "name": "batch_normalization_14/moving_variance", "shape": [192]}, {"dtype": "float32", "name": "batch_normalization_15/gamma", "shape": [192]}, {"dtype": "float32", "name": "batch_normalization_15/beta", "shape": [192]}, {"dtype": "float32", "name": "batch_normalization_15/moving_mean", "shape": [192]}, {"dtype": "float32", "name": "batch_normalization_15/moving_variance", "shape": [192]}, {"dtype": "float32", "name": "batch_normalization_16/gamma", "shape": [32]}, {"dtype": "float32", "name": "batch_normalization_16/beta", "shape": [32]}, {"dtype": "float32", "name": "batch_normalization_16/moving_mean", "shape": [32]}, {"dtype": "float32", "name": "batch_normalization_16/moving_variance", "shape": [32]}, {"dtype": "float32", "name": "batch_normalization_17/gamma", "shape": [192]}, {"dtype": "float32", "name": "batch_normalization_17/beta", "shape": [192]}, {"dtype": "float32", "name": "batch_normalization_17/moving_mean", "shape": [192]}, {"dtype": "float32", "name": "batch_normalization_17/moving_variance", "shape": [192]}, {"dtype": "float32", "name": "batch_normalization_18/gamma", "shape": [192]}, {"dtype": "float32", "name": "batch_normalization_18/beta", "shape": [192]}, {"dtype": "float32", "name": "batch_normalization_18/moving_mean", "shape": [192]}, {"dtype": "float32", "name": "batch_normalization_18/moving_variance", "shape": [192]}, {"dtype": "float32", "name": "batch_normalization_19/gamma", "shape": [32]}, {"dtype": "float32", "name": "batch_normalization_19/beta", "shape": [32]}, {"dtype": "float32", "name": "batch_normalization_19/moving_mean", "shape": [32]}, {"dtype": "float32", "name": "batch_normalization_19/moving_variance", "shape": [32]}, {"dtype": "float32", "name": "batch_normalization_2/gamma", "shape": [32]}, {"dtype": "float32", "name": "batch_normalization_2/beta", "shape": [32]}, {"dtype": "float32", "name": "batch_normalization_2/moving_mean", "shape": [32]}, {"dtype": "float32", "name": "batch_normalization_2/moving_variance", "shape": [32]}, {"dtype": "float32", "name": "batch_normalization_20/gamma", "shape": [192]}, {"dtype": "float32", "name": "batch_normalization_20/beta", "shape": [192]}, {"dtype": "float32", "name": "batch_normalization_20/moving_mean", "shape": [192]}, {"dtype": "float32", "name": "batch_normalization_20/moving_variance", "shape": [192]}, {"dtype": "float32", "name": "batch_normalization_21/gamma", "shape": [192]}, {"dtype": "float32", "name": "batch_normalization_21/beta", "shape": [192]}, {"dtype": "float32", "name": "batch_normalization_21/moving_mean", "shape": [192]}, {"dtype": "float32", "name": "batch_normalization_21/moving_variance", "shape": [192]}, {"dtype": "float32", "name": "batch_normalization_22/gamma", "shape": [64]}, {"dtype": "float32", "name": "batch_normalization_22/beta", "shape": [64]}, {"dtype": "float32", "name": "batch_normalization_22/moving_mean", "shape": [64]}, {"dtype": "float32", "name": "batch_normalization_22/moving_variance", "shape": [64]}, {"dtype": "float32", "name": "batch_normalization_23/gamma", "shape": [384]}, {"dtype": "float32", "name": "batch_normalization_23/beta", "shape": [384]}, {"dtype": "float32", "name": "batch_normalization_23/moving_mean", "shape": [384]}, {"dtype": "float32", "name": "batch_normalization_23/moving_variance", "shape": [384]}, {"dtype": "float32", "name": "batch_normalization_24/gamma", "shape": [384]}, {"dtype": "float32", "name": "batch_normalization_24/beta", "shape": [384]}, {"dtype": "float32", "name": "batch_normalization_24/moving_mean", "shape": [384]}, {"dtype": "float32", "name": "batch_normalization_24/moving_variance", "shape": [384]}, {"dtype": "float32", "name": "batch_normalization_25/gamma", "shape": [64]}, {"dtype": "float32", "name": "batch_normalization_25/beta", "shape": [64]}, {"dtype": "float32", "name": "batch_normalization_25/moving_mean", "shape": [64]}, {"dtype": "float32", "name": "batch_normalization_25/moving_variance", "shape": [64]}, {"dtype": "float32", "name": "batch_normalization_26/gamma", "shape": [384]}, {"dtype": "float32", "name": "batch_normalization_26/beta", "shape": [384]}, {"dtype": "float32", "name": "batch_normalization_26/moving_mean", "shape": [384]}, {"dtype": "float32", "name": "batch_normalization_26/moving_variance", "shape": [384]}, {"dtype": "float32", "name": "batch_normalization_27/gamma", "shape": [384]}, {"dtype": "float32", "name": "batch_normalization_27/beta", "shape": [384]}, {"dtype": "float32", "name": "batch_normalization_27/moving_mean", "shape": [384]}, {"dtype": "float32", "name": "batch_normalization_27/moving_variance", "shape": [384]}, {"dtype": "float32", "name": "batch_normalization_28/gamma", "shape": [64]}, {"dtype": "float32", "name": "batch_normalization_28/beta", "shape": [64]}, {"dtype": "float32", "name": "batch_normalization_28/moving_mean", "shape": [64]}, {"dtype": "float32", "name": "batch_normalization_28/moving_variance", "shape": [64]}, {"dtype": "float32", "name": "batch_normalization_29/gamma", "shape": [384]}, {"dtype": "float32", "name": "batch_normalization_29/beta", "shape": [384]}, {"dtype": "float32", "name": "batch_normalization_29/moving_mean", "shape": [384]}, {"dtype": "float32", "name": "batch_normalization_29/moving_variance", "shape": [384]}, {"dtype": "float32", "name": "batch_normalization_3/gamma", "shape": [32]}, {"dtype": "float32", "name": "batch_normalization_3/beta", "shape": [32]}, {"dtype": "float32", "name": "batch_normalization_3/moving_mean", "shape": [32]}, {"dtype": "float32", "name": "batch_normalization_3/moving_variance", "shape": [32]}, {"dtype": "float32", "name": "batch_normalization_30/gamma", "shape": [384]}, {"dtype": "float32", "name": "batch_normalization_30/beta", "shape": [384]}, {"dtype": "float32", "name": "batch_normalization_30/moving_mean", "shape": [384]}, {"dtype": "float32", "name": "batch_normalization_30/moving_variance", "shape": [384]}, {"dtype": "float32", "name": "batch_normalization_31/gamma", "shape": [64]}, {"dtype": "float32", "name": "batch_normalization_31/beta", "shape": [64]}, {"dtype": "float32", "name": "batch_normalization_31/moving_mean", "shape": [64]}, {"dtype": "float32", "name": "batch_normalization_31/moving_variance", "shape": [64]}, {"dtype": "float32", "name": "batch_normalization_32/gamma", "shape": [384]}, {"dtype": "float32", "name": "batch_normalization_32/beta", "shape": [384]}, {"dtype": "float32", "name": "batch_normalization_32/moving_mean", "shape": [384]}, {"dtype": "float32", "name": "batch_normalization_32/moving_variance", "shape": [384]}, {"dtype": "float32", "name": "batch_normalization_33/gamma", "shape": [384]}, {"dtype": "float32", "name": "batch_normalization_33/beta", "shape": [384]}, {"dtype": "float32", "name": "batch_normalization_33/moving_mean", "shape": [384]}, {"dtype": "float32", "name": "batch_normalization_33/moving_variance", "shape": [384]}, {"dtype": "float32", "name": "batch_normalization_34/gamma", "shape": [96]}, {"dtype": "float32", "name": "batch_normalization_34/beta", "shape": [96]}, {"dtype": "float32", "name": "batch_normalization_34/moving_mean", "shape": [96]}, {"dtype": "float32", "name": "batch_normalization_34/moving_variance", "shape": [96]}, {"dtype": "float32", "name": "batch_normalization_35/gamma", "shape": [576]}, {"dtype": "float32", "name": "batch_normalization_35/beta", "shape": [576]}, {"dtype": "float32", "name": "batch_normalization_35/moving_mean", "shape": [576]}, {"dtype": "float32", "name": "batch_normalization_35/moving_variance", "shape": [576]}, {"dtype": "float32", "name": "batch_normalization_36/gamma", "shape": [576]}, {"dtype": "float32", "name": "batch_normalization_36/beta", "shape": [576]}, {"dtype": "float32", "name": "batch_normalization_36/moving_mean", "shape": [576]}, {"dtype": "float32", "name": "batch_normalization_36/moving_variance", "shape": [576]}, {"dtype": "float32", "name": "batch_normalization_37/gamma", "shape": [96]}, {"dtype": "float32", "name": "batch_normalization_37/beta", "shape": [96]}, {"dtype": "float32", "name": "batch_normalization_37/moving_mean", "shape": [96]}, {"dtype": "float32", "name": "batch_normalization_37/moving_variance", "shape": [96]}, {"dtype": "float32", "name": "batch_normalization_38/gamma", "shape": [576]}, {"dtype": "float32", "name": "batch_normalization_38/beta", "shape": [576]}, {"dtype": "float32", "name": "batch_normalization_38/moving_mean", "shape": [576]}, {"dtype": "float32", "name": "batch_normalization_38/moving_variance", "shape": [576]}, {"dtype": "float32", "name": "batch_normalization_39/gamma", "shape": [576]}, {"dtype": "float32", "name": "batch_normalization_39/beta", "shape": [576]}, {"dtype": "float32", "name": "batch_normalization_39/moving_mean", "shape": [576]}, {"dtype": "float32", "name": "batch_normalization_39/moving_variance", "shape": [576]}, {"dtype": "float32", "name": "batch_normalization_4/gamma", "shape": [16]}, {"dtype": "float32", "name": "batch_normalization_4/beta", "shape": [16]}, {"dtype": "float32", "name": "batch_normalization_4/moving_mean", "shape": [16]}, {"dtype": "float32", "name": "batch_normalization_4/moving_variance", "shape": [16]}, {"dtype": "float32", "name": "batch_normalization_40/gamma", "shape": [96]}, {"dtype": "float32", "name": "batch_normalization_40/beta", "shape": [96]}, {"dtype": "float32", "name": "batch_normalization_40/moving_mean", "shape": [96]}, {"dtype": "float32", "name": "batch_normalization_40/moving_variance", "shape": [96]}, {"dtype": "float32", "name": "batch_normalization_41/gamma", "shape": [576]}, {"dtype": "float32", "name": "batch_normalization_41/beta", "shape": [576]}, {"dtype": "float32", "name": "batch_normalization_41/moving_mean", "shape": [576]}, {"dtype": "float32", "name": "batch_normalization_41/moving_variance", "shape": [576]}, {"dtype": "float32", "name": "batch_normalization_42/gamma", "shape": [576]}, {"dtype": "float32", "name": "batch_normalization_42/beta", "shape": [576]}, {"dtype": "float32", "name": "batch_normalization_42/moving_mean", "shape": [576]}, {"dtype": "float32", "name": "batch_normalization_42/moving_variance", "shape": [576]}, {"dtype": "float32", "name": "batch_normalization_43/gamma", "shape": [160]}, {"dtype": "float32", "name": "batch_normalization_43/beta", "shape": [160]}, {"dtype": "float32", "name": "batch_normalization_43/moving_mean", "shape": [160]}, {"dtype": "float32", "name": "batch_normalization_43/moving_variance", "shape": [160]}, {"dtype": "float32", "name": "batch_normalization_44/gamma", "shape": [960]}, {"dtype": "float32", "name": "batch_normalization_44/beta", "shape": [960]}, {"dtype": "float32", "name": "batch_normalization_44/moving_mean", "shape": [960]}, {"dtype": "float32", "name": "batch_normalization_44/moving_variance", "shape": [960]}, {"dtype": "float32", "name": "batch_normalization_45/gamma", "shape": [960]}, {"dtype": "float32", "name": "batch_normalization_45/beta", "shape": [960]}, {"dtype": "float32", "name": "batch_normalization_45/moving_mean", "shape": [960]}, {"dtype": "float32", "name": "batch_normalization_45/moving_variance", "shape": [960]}, {"dtype": "float32", "name": "batch_normalization_46/gamma", "shape": [160]}, {"dtype": "float32", "name": "batch_normalization_46/beta", "shape": [160]}, {"dtype": "float32", "name": "batch_normalization_46/moving_mean", "shape": [160]}, {"dtype": "float32", "name": "batch_normalization_46/moving_variance", "shape": [160]}, {"dtype": "float32", "name": "batch_normalization_47/gamma", "shape": [960]}, {"dtype": "float32", "name": "batch_normalization_47/beta", "shape": [960]}, {"dtype": "float32", "name": "batch_normalization_47/moving_mean", "shape": [960]}, {"dtype": "float32", "name": "batch_normalization_47/moving_variance", "shape": [960]}, {"dtype": "float32", "name": "batch_normalization_48/gamma", "shape": [960]}, {"dtype": "float32", "name": "batch_normalization_48/beta", "shape": [960]}, {"dtype": "float32", "name": "batch_normalization_48/moving_mean", "shape": [960]}, {"dtype": "float32", "name": "batch_normalization_48/moving_variance", "shape": [960]}, {"dtype": "float32", "name": "batch_normalization_49/gamma", "shape": [160]}, {"dtype": "float32", "name": "batch_normalization_49/beta", "shape": [160]}, {"dtype": "float32", "name": "batch_normalization_49/moving_mean", "shape": [160]}, {"dtype": "float32", "name": "batch_normalization_49/moving_variance", "shape": [160]}, {"dtype": "float32", "name": "batch_normalization_5/gamma", "shape": [96]}, {"dtype": "float32", "name": "batch_normalization_5/beta", "shape": [96]}, {"dtype": "float32", "name": "batch_normalization_5/moving_mean", "shape": [96]}, {"dtype": "float32", "name": "batch_normalization_5/moving_variance", "shape": [96]}, {"dtype": "float32", "name": "batch_normalization_50/gamma", "shape": [960]}, {"dtype": "float32", "name": "batch_normalization_50/beta", "shape": [960]}, {"dtype": "float32", "name": "batch_normalization_50/moving_mean", "shape": [960]}, {"dtype": "float32", "name": "batch_normalization_50/moving_variance", "shape": [960]}, {"dtype": "float32", "name": "batch_normalization_51/gamma", "shape": [960]}, {"dtype": "float32", "name": "batch_normalization_51/beta", "shape": [960]}, {"dtype": "float32", "name": "batch_normalization_51/moving_mean", "shape": [960]}, {"dtype": "float32", "name": "batch_normalization_51/moving_variance", "shape": [960]}, {"dtype": "float32", "name": "batch_normalization_52/gamma", "shape": [320]}, {"dtype": "float32", "name": "batch_normalization_52/beta", "shape": [320]}, {"dtype": "float32", "name": "batch_normalization_52/moving_mean", "shape": [320]}, {"dtype": "float32", "name": "batch_normalization_52/moving_variance", "shape": [320]}, {"dtype": "float32", "name": "batch_normalization_53/gamma", "shape": [1280]}, {"dtype": "float32", "name": "batch_normalization_53/beta", "shape": [1280]}, {"dtype": "float32", "name": "batch_normalization_53/moving_mean", "shape": [1280]}, {"dtype": "float32", "name": "batch_normalization_53/moving_variance", "shape": [1280]}, {"dtype": "float32", "name": "batch_normalization_6/gamma", "shape": [96]}, {"dtype": "float32", "name": "batch_normalization_6/beta", "shape": [96]}, {"dtype": "float32", "name": "batch_normalization_6/moving_mean", "shape": [96]}, {"dtype": "float32", "name": "batch_normalization_6/moving_variance", "shape": [96]}, {"dtype": "float32", "name": "batch_normalization_7/gamma", "shape": [24]}, {"dtype": "float32", "name": "batch_normalization_7/beta", "shape": [24]}, {"dtype": "float32", "name": "batch_normalization_7/moving_mean", "shape": [24]}, {"dtype": "float32", "name": "batch_normalization_7/moving_variance", "shape": [24]}, {"dtype": "float32", "name": "batch_normalization_8/gamma", "shape": [144]}, {"dtype": "float32", "name": "batch_normalization_8/beta", "shape": [144]}, {"dtype": "float32", "name": "batch_normalization_8/moving_mean", "shape": [144]}, {"dtype": "float32", "name": "batch_normalization_8/moving_variance", "shape": [144]}, {"dtype": "float32", "name": "batch_normalization_9/gamma", "shape": [144]}, {"dtype": "float32", "name": "batch_normalization_9/beta", "shape": [144]}, {"dtype": "float32", "name": "batch_normalization_9/moving_mean", "shape": [144]}, {"dtype": "float32", "name": "batch_normalization_9/moving_variance", "shape": [144]}, {"dtype": "float32", "name": "conv2d_1/kernel", "shape": [3, 3, 3, 32]}, {"dtype": "float32", "name": "conv2d_1/bias", "shape": [32]}, {"dtype": "float32", "name": "conv2d_10/kernel", "shape": [1, 1, 32, 192]}, {"dtype": "float32", "name": "conv2d_10/bias", "shape": [192]}, {"dtype": "float32", "name": "conv2d_11/kernel", "shape": [1, 1, 192, 32]}, {"dtype": "float32", "name": "conv2d_11/bias", "shape": [32]}, {"dtype": "float32", "name": "conv2d_12/kernel", "shape": [1, 1, 32, 192]}, {"dtype": "float32", "name": "conv2d_12/bias", "shape": [192]}, {"dtype": "float32", "name": "conv2d_13/kernel", "shape": [1, 1, 192, 32]}, {"dtype": "float32", "name": "conv2d_13/bias", "shape": [32]}, {"dtype": "float32", "name": "conv2d_14/kernel", "shape": [1, 1, 32, 192]}, {"dtype": "float32", "name": "conv2d_14/bias", "shape": [192]}, {"dtype": "float32", "name": "conv2d_15/kernel", "shape": [1, 1, 192, 64]}, {"dtype": "float32", "name": "conv2d_15/bias", "shape": [64]}, {"dtype": "float32", "name": "conv2d_16/kernel", "shape": [1, 1, 64, 384]}, {"dtype": "float32", "name": "conv2d_16/bias", "shape": [384]}, {"dtype": "float32", "name": "conv2d_17/kernel", "shape": [1, 1, 384, 64]}, {"dtype": "float32", "name": "conv2d_17/bias", "shape": [64]}, {"dtype": "float32", "name": "conv2d_18/kernel", "shape": [1, 1, 64, 384]}, {"dtype": "float32", "name": "conv2d_18/bias", "shape": [384]}, {"dtype": "float32", "name": "conv2d_19/kernel", "shape": [1, 1, 384, 64]}, {"dtype": "float32", "name": "conv2d_19/bias", "shape": [64]}, {"dtype": "float32", "name": "conv2d_2/kernel", "shape": [1, 1, 32, 32]}, {"dtype": "float32", "name": "conv2d_2/bias", "shape": [32]}, {"dtype": "float32", "name": "conv2d_20/kernel", "shape": [1, 1, 64, 384]}, {"dtype": "float32", "name": "conv2d_20/bias", "shape": [384]}, {"dtype": "float32", "name": "conv2d_21/kernel", "shape": [1, 1, 384, 64]}, {"dtype": "float32", "name": "conv2d_21/bias", "shape": [64]}, {"dtype": "float32", "name": "conv2d_22/kernel", "shape": [1, 1, 64, 384]}, {"dtype": "float32", "name": "conv2d_22/bias", "shape": [384]}, {"dtype": "float32", "name": "conv2d_23/kernel", "shape": [1, 1, 384, 96]}, {"dtype": "float32", "name": "conv2d_23/bias", "shape": [96]}, {"dtype": "float32", "name": "conv2d_24/kernel", "shape": [1, 1, 96, 576]}, {"dtype": "float32", "name": "conv2d_24/bias", "shape": [576]}, {"dtype": "float32", "name": "conv2d_25/kernel", "shape": [1, 1, 576, 96]}, {"dtype": "float32", "name": "conv2d_25/bias", "shape": [96]}, {"dtype": "float32", "name": "conv2d_26/kernel", "shape": [1, 1, 96, 576]}, {"dtype": "float32", "name": "conv2d_26/bias", "shape": [576]}, {"dtype": "float32", "name": "conv2d_27/kernel", "shape": [1, 1, 576, 96]}, {"dtype": "float32", "name": "conv2d_27/bias", "shape": [96]}, {"dtype": "float32", "name": "conv2d_28/kernel", "shape": [1, 1, 96, 576]}, {"dtype": "float32", "name": "conv2d_28/bias", "shape": [576]}, {"dtype": "float32", "name": "conv2d_29/kernel", "shape": [1, 1, 576, 160]}, {"dtype": "float32", "name": "conv2d_29/bias", "shape": [160]}, {"dtype": "float32", "name": "conv2d_3/kernel", "shape": [1, 1, 32, 16]}, {"dtype": "float32", "name": "conv2d_3/bias", "shape": [16]}, {"dtype": "float32", "name": "conv2d_30/kernel", "shape": [1, 1, 160, 960]}, {"dtype": "float32", "name": "conv2d_30/bias", "shape": [960]}, {"dtype": "float32", "name": "conv2d_31/kernel", "shape": [1, 1, 960, 160]}, {"dtype": "float32", "name": "conv2d_31/bias", "shape": [160]}, {"dtype": "float32", "name": "conv2d_32/kernel", "shape": [1, 1, 160, 960]}, {"dtype": "float32", "name": "conv2d_32/bias", "shape": [960]}, {"dtype": "float32", "name": "conv2d_33/kernel", "shape": [1, 1, 960, 160]}, {"dtype": "float32", "name": "conv2d_33/bias", "shape": [160]}, {"dtype": "float32", "name": "conv2d_34/kernel", "shape": [1, 1, 160, 960]}, {"dtype": "float32", "name": "conv2d_34/bias", "shape": [960]}, {"dtype": "float32", "name": "conv2d_35/kernel", "shape": [1, 1, 960, 320]}, {"dtype": "float32", "name": "conv2d_35/bias", "shape": [320]}, {"dtype": "float32", "name": "conv2d_36/kernel", "shape": [1, 1, 320, 1280]}, {"dtype": "float32", "name": "conv2d_36/bias", "shape": [1280]}, {"dtype": "float32", "name": "conv2d_37/kernel", "shape": [1, 1, 1280, 132]}, {"dtype": "float32", "name": "conv2d_37/bias", "shape": [132]}, {"dtype": "float32", "name": "conv2d_4/kernel", "shape": [1, 1, 16, 96]}, {"dtype": "float32", "name": "conv2d_4/bias", "shape": [96]}, {"dtype": "float32", "name": "conv2d_5/kernel", "shape": [1, 1, 96, 24]}, {"dtype": "float32", "name": "conv2d_5/bias", "shape": [24]}, {"dtype": "float32", "name": "conv2d_6/kernel", "shape": [1, 1, 24, 144]}, {"dtype": "float32", "name": "conv2d_6/bias", "shape": [144]}, {"dtype": "float32", "name": "conv2d_7/kernel", "shape": [1, 1, 144, 24]}, {"dtype": "float32", "name": "conv2d_7/bias", "shape": [24]}, {"dtype": "float32", "name": "conv2d_8/kernel", "shape": [1, 1, 24, 144]}, {"dtype": "float32", "name": "conv2d_8/bias", "shape": [144]}, {"dtype": "float32", "name": "conv2d_9/kernel", "shape": [1, 1, 144, 32]}, {"dtype": "float32", "name": "conv2d_9/bias", "shape": [32]}, {"dtype": "float32", "name": "depthwise_conv2d_1/depthwise_kernel", "shape": [3, 3, 32, 1]}, {"dtype": "float32", "name": "depthwise_conv2d_1/bias", "shape": [32]}, {"dtype": "float32", "name": "depthwise_conv2d_10/depthwise_kernel", "shape": [3, 3, 384, 1]}, {"dtype": "float32", "name": "depthwise_conv2d_10/bias", "shape": [384]}, {"dtype": "float32", "name": "depthwise_conv2d_11/depthwise_kernel", "shape": [3, 3, 384, 1]}, {"dtype": "float32", "name": "depthwise_conv2d_11/bias", "shape": [384]}, {"dtype": "float32", "name": "depthwise_conv2d_12/depthwise_kernel", "shape": [3, 3, 576, 1]}, {"dtype": "float32", "name": "depthwise_conv2d_12/bias", "shape": [576]}, {"dtype": "float32", "name": "depthwise_conv2d_13/depthwise_kernel", "shape": [3, 3, 576, 1]}, {"dtype": "float32", "name": "depthwise_conv2d_13/bias", "shape": [576]}, {"dtype": "float32", "name": "depthwise_conv2d_14/depthwise_kernel", "shape": [3, 3, 576, 1]}, {"dtype": "float32", "name": "depthwise_conv2d_14/bias", "shape": [576]}, {"dtype": "float32", "name": "depthwise_conv2d_15/depthwise_kernel", "shape": [3, 3, 960, 1]}, {"dtype": "float32", "name": "depthwise_conv2d_15/bias", "shape": [960]}, {"dtype": "float32", "name": "depthwise_conv2d_16/depthwise_kernel", "shape": [3, 3, 960, 1]}, {"dtype": "float32", "name": "depthwise_conv2d_16/bias", "shape": [960]}, {"dtype": "float32", "name": "depthwise_conv2d_17/depthwise_kernel", "shape": [3, 3, 960, 1]}, {"dtype": "float32", "name": "depthwise_conv2d_17/bias", "shape": [960]}, {"dtype": "float32", "name": "depthwise_conv2d_2/depthwise_kernel", "shape": [3, 3, 96, 1]}, {"dtype": "float32", "name": "depthwise_conv2d_2/bias", "shape": [96]}, {"dtype": "float32", "name": "depthwise_conv2d_3/depthwise_kernel", "shape": [3, 3, 144, 1]}, {"dtype": "float32", "name": "depthwise_conv2d_3/bias", "shape": [144]}, {"dtype": "float32", "name": "depthwise_conv2d_4/depthwise_kernel", "shape": [3, 3, 144, 1]}, {"dtype": "float32", "name": "depthwise_conv2d_4/bias", "shape": [144]}, {"dtype": "float32", "name": "depthwise_conv2d_5/depthwise_kernel", "shape": [3, 3, 192, 1]}, {"dtype": "float32", "name": "depthwise_conv2d_5/bias", "shape": [192]}, {"dtype": "float32", "name": "depthwise_conv2d_6/depthwise_kernel", "shape": [3, 3, 192, 1]}, {"dtype": "float32", "name": "depthwise_conv2d_6/bias", "shape": [192]}, {"dtype": "float32", "name": "depthwise_conv2d_7/depthwise_kernel", "shape": [3, 3, 192, 1]}, {"dtype": "float32", "name": "depthwise_conv2d_7/bias", "shape": [192]}, {"dtype": "float32", "name": "depthwise_conv2d_8/depthwise_kernel", "shape": [3, 3, 384, 1]}, {"dtype": "float32", "name": "depthwise_conv2d_8/bias", "shape": [384]}, {"dtype": "float32", "name": "depthwise_conv2d_9/depthwise_kernel", "shape": [3, 3, 384, 1]}, {"dtype": "float32", "name": "depthwise_conv2d_9/bias", "shape": [384]}]}]}